trained_modules/PPO_actor.pth (torch, 12335 bytes, 12 tensors)

in_layer.weight f4 [100, 3]
0	0xbe159bc5	-0.14610203
1	0x3e0d0920	0.13773012
2	0x3c3488de	0.01101896
3	0xbdf82cd6	-0.12117927
4	0x3e6a06fd	0.22854228
5	0x3dd282ea	0.10278876
6	0xbd5529d2	-0.052041836
7	0x3ed9ade1	0.42515472
8	0x3ded0e5e	0.11575006
9	0xbd8432a3	-0.06454971
10	0x3dc32fc0	0.09530592
11	0x3c669ce5	0.0140754925
12	0xbe436c97	-0.19084392
13	0x3eac07f8	0.3359983
14	0xbd7ee359	-0.062228534
15	0xbcc87d1c	-0.02447372
16	0x3cba1f3f	0.022719977
17	0xbd2aa4ed	-0.04166119
18	0xbeb5bbeb	-0.35494933
19	0xbe9b1f6c	-0.3029741
20	0x3e83c855	0.2573878
21	0xbde8f8f6	-0.113756105
22	0xbdc40378	-0.09570974
23	0xb9cf5298	-0.00039543654
24	0x3df53a3b	0.11973997
25	0x3d0425c3	0.032262575
26	0xbc99c2a3	-0.018769568
27	0x3dd1ea0c	0.10249719
28	0xbe42bc40	-0.19017124
29	0xbd7011ac	-0.058610603
30	0x3ebfa954	0.37433875
31	0x3f2d967c	0.67807746
32	0x3e836287	0.25661108
33	0x3e6936d0	0.22774816
34	0xbd9ad12f	-0.0755943
35	0xbdadbe2b	-0.08483537
36	0x3e5e74ae	0.21724197
37	0xbd6ac1d4	-0.057313755
38	0xbdced1bf	-0.100986
39	0xbe59d44b	-0.2127239
40	0xbdb6246b	-0.08893665
41	0xbd2bb803	-0.041923534
42	0xbd987c37	-0.07445567
43	0x3c65068e	0.013978614
44	0xbbdddde6	-0.006770837
45	0xbe31bbd3	-0.17356806
46	0xbde0189f	-0.10942196
47	0x3c9eb914	0.019375362
48	0x3e1d5094	0.1536277
49	0xbd8a068a	-0.067395285
50	0x3d01664e	0.031591706
51	0xbc85cca3	-0.01633293
52	0xbf19b9a6	-0.600489
53	0x3e53900b	0.20660417
54	0xbe652329	-0.22376694
55	0x3e512a1a	0.20426217
56	0x3d9134fd	0.07090185
57	0xbea53ace	-0.32271427
58	0x3d08cdee	0.033399515
59	0xbdfd5536	-0.12369768
60	0xbe642c23	-0.22282462
61	0xbdebcbad	-0.115134574
62	0xbd6a9f8f	-0.057281073
63	0xbe8464ec	-0.25858247
64	0x3e67e6b6	0.22646603
65	0xbd690cef	-0.0568971
66	0x3e25aa7f	0.1617832
67	0xbe1943b0	-0.14967227
68	0x3dd5924c	0.104282945
69	0x3e609700	0.21932602
70	0xbddbd688	-0.10734278
71	0x3dcfff03	0.101560615
72	0xbdbd017a	-0.09228797
73	0xbd23db5f	-0.04000413
74	0xbddcd3bd	-0.10782573
75	0x3e1e8289	0.15479483
76	0x3dcf6fab	0.10128721
77	0xbe269cc0	-0.16270733
78	0x3ca8035f	0.02050942
79	0x3c462ce1	0.012095661
80	0xbc1bf9f8	-0.009520046
81	0xbca2a5d3	-0.019854462
82	0xbddbf1b2	-0.10739459
83	0xbcd7ae46	-0.026328217
84	0xbceff380	-0.029290915
85	0x3ec52538	0.38504958
86	0xbd833cdd	-0.06408093
87	0x3ccc0eee	0.024909463
88	0x3ed21d5c	0.41038024
89	0x3e0eb3a2	0.13935712
90	0x3d4f868b	0.05066542
91	0xbf17f13d	-0.59352475
92	0x3e7ead6c	0.24870843
93	0x3ea1e703	0.3162156
94	0xbdccc608	-0.09998709
95	0xbe603870	-0.21896529
96	0x3ef68114	0.48145354
97	0x3bd2c651	0.0064323326
98	0xbe5cad76	-0.21550545
99	0x3ed59d37	0.41721508
100	0x3ef4c5b9	0.478071
101	0x3e45c583	0.19313626
102	0x3d388639	0.04504988
103	0x3ea0c462	0.31399828
104	0xbdbba974	-0.0916318
105	0xbe5abdd8	-0.21361482
106	0x3e0171a4	0.12641007
107	0x3b58382b	0.0032992463
108	0x3e4ae45f	0.19813679
109	0x3eabbba5	0.335416
110	0x3dc63ac6	0.09679179
111	0xbcb9ac8b	-0.022665283
112	0xbd180d28	-0.03712192
113	0xbd07fe56	-0.033201538
114	0xbe7ae651	-0.24501921
115	0x3e3a9490	0.18220735
116	0xbe24ff93	-0.16113119
117	0x3e4c6ffa	0.1996459
118	0xbe168632	-0.14699629
119	0xbd848b0a	-0.06471832
120	0x3e2ea9c7	0.17056952
121	0xbd3ab3da	-0.045581676
122	0xbe001289	-0.1250707
123	0x3eb2fbc4	0.34957707
124	0x3f05ffbd	0.5234335
125	0x3e224b6b	0.15849082
126	0x3e2d4dce	0.16924211
127	0x3eee4498	0.46536708
128	0x3e28d541	0.164876
129	0x3a8f47b4	0.0010931403
130	0xbd7709c0	-0.060312033
131	0x3c686593	0.014184373
132	0x3ef3fd04	0.47653973
133	0x3f1a8a1b	0.6036698
134	0x3e933935	0.28754583
135	0xbca9e180	-0.02073741
136	0x3ec5a6b5	0.3860375
137	0x3de93859	0.113877006
138	0xbdb16261	-0.086613424
139	0xbdc0edb9	-0.09420342
140	0xbd61afdb	-0.05509935
141	0x3c3e8e51	0.011630611
142	0x3c1b48a3	0.009477767
143	0x3d4b18d4	0.049584225
144	0xbe104c52	-0.14091614
145	0x3ea22741	0.31670573
146	0xbe1ba992	-0.15201405
147	0xbcc4a074	-0.024002291
148	0x3e0fbc1e	0.14036605
149	0x3da35e38	0.07976955
150	0x3d4746ce	0.04865151
151	0xbc8a25fe	-0.01686382
152	0xbd468715	-0.048468668
153	0x3ecbf986	0.3983881
154	0x3eb32ab3	0.34993514
155	0x3e131c28	0.1436621
156	0x3de27b0d	0.11058626
157	0xbe664aae	-0.22489426
158	0xbab5eddf	-0.0013880095
159	0x3d441578	0.047872037
160	0xbdef7024	-0.11691311
161	0x3c207b5c	0.009795036
162	0xbec02d69	-0.37534645
163	0x3ea48596	0.32133168
164	0xbe26cefb	-0.16289894
165	0xbdfd1fe8	-0.12359601
166	0xbe04f30f	-0.12983344
167	0xbde4ccfc	-0.1117191
168	0x3ec3d5c3	0.38249025
169	0x3f03bc55	0.51459247
170	0x3e300b7b	0.1719188
171	0xbecc44e5	-0.39896312
172	0x3d0589a4	0.032601967
173	0xbdefb4de	-0.117044196
174	0xbdfc3539	-0.12314839
175	0xbe2b792e	-0.16745445
176	0xbd925422	-0.07144953
177	0xbcdd295d	-0.026997263
178	0x3ea38009	0.3193362
179	0x3e077b74	0.13230687
180	0x3e9f4cfc	0.31113422
181	0x3e9cfd27	0.3066189
182	0x3e0b3dc0	0.13597775
183	0x3e4fc112	0.20288494
184	0xbdf38ee1	-0.11892486
185	0xbe37695c	-0.17911285
186	0x3eade7df	0.33965966
187	0x3ea6b1d2	0.3255754
188	0x3e071264	0.13190609
189	0x3edad436	0.4274003
190	0x3ec5e7c0	0.38653374
191	0x3e50a77f	0.20376395
192	0x3e98cd9d	0.2984437
193	0xbe09d36d	-0.13459559
194	0xbddd74ec	-0.10813317
195	0x3dd6d37a	0.10489555
196	0x3e2a5708	0.16634762
197	0xbd22ebb9	-0.039775584
198	0x3e36a817	0.17837559
199	0x3d7c1954	0.061547592
200	0xbdbcbcf9	-0.09215731
201	0xbcb981e0	-0.022644937
202	0xbc97bfd6	-0.018524092
203	0x3e580fe8	0.21099818
204	0xbedd5684	-0.4323007
205	0xbd814b1a	-0.063131526
206	0x3e620241	0.22071172
207	0x3e8d64c5	0.27615944
208	0x3ed8bf9d	0.4233369
209	0x3dfbb65f	0.12290644
210	0xbd83cc95	-0.06435505
211	0xbd5b9d55	-0.05361684
212	0x3c53d68d	0.012929571
213	0xbdafc9d7	-0.0858342
214	0x3de8fd81	0.11376477
215	0xbce9291e	-0.028461989
216	0x3eb47c94	0.35251296
217	0x3d95c7b5	0.07313482
218	0xbdbd9c2d	-0.09258304
219	0x3ed7baeb	0.42134795
220	0x3f00de44	0.5033915
221	0x3e55a0ab	0.20862071
222	0x3e676c10	0.22599816
223	0xbe216dc6	-0.15764531
224	0x3d65bcda	0.056088306
225	0xbdc41307	-0.09573942
226	0xbdcc2a28	-0.09968978
227	0x3d09adb7	0.033612933
228	0xbe99394a	-0.2992652
229	0x3b88c186	0.0041734604
230	0x3e94e730	0.29082632
231	0x3d7de867	0.061989214
232	0xbe5382d1	-0.20655371
233	0x3de432dc	0.11142513
234	0xbe8643bb	-0.2622355
235	0x3d681e93	0.056669783
236	0xbda09737	-0.07841342
237	0xbec04f7a	-0.37560636
238	0xbec83c49	-0.39108494
239	0x3e9e2624	0.30888474
240	0x3d1d4ca8	0.038403183
241	0xbd7ba6ff	-0.061438557
242	0xbd4cc805	-0.04999544
243	0x3e6663f0	0.2249906
244	0x3b5c107e	0.0033579166
245	0xbdaa1f51	-0.083067544
246	0xbe664cd2	-0.22490242
247	0x3e29597a	0.16538039
248	0xbe5bc9ae	-0.21463653
249	0xbe9afb15	-0.30269685
250	0x39cf5c5c	0.0003955093
251	0xbe23329a	-0.15937272
252	0xbe902424	-0.28152573
253	0xbe4f81ed	-0.20264407
254	0x3e5efbb4	0.21775705
255	0xbcfdc196	-0.030976098

in_layer.bias f4 [100]
0	0x3ee1a97b	0.44074616
1	0x3f387f8e	0.72069633
2	0x3ed81e63	0.42210683
3	0xbe736371	-0.23768403
4	0x3ec008c0	0.37506676
5	0xbf0a7a8c	-0.5409324
6	0x3d239779	0.039939377
7	0xbe1d2cb8	-0.1534909
8	0xbe7f18d4	-0.24911815
9	0x3e6aa1ad	0.22913237
10	0xbd99720c	-0.07492456
11	0x3ca98d90	0.020697385
12	0xbd8e53b0	-0.06949556
13	0xbf110b02	-0.5665742
14	0xbe06e23a	-0.13172236
15	0xbefa844d	-0.48929062
16	0x3ec1ba09	0.37837246
17	0x3ebe173b	0.37127098
18	0x3f09b4df	0.5379161
19	0xbe334d54	-0.17509967
20	0xbd67d547	-0.05659988
21	0x3d9f5c32	0.07781257
22	0x3f1f1916	0.62147653
23	0x3f161d21	0.586382
24	0xbebceff1	-0.3690181
25	0xbed5c9ec	-0.41755617
26	0xbf053640	-0.52035904
27	0xbe9c5e61	-0.30540755
28	0x3ef8479c	0.48492134
29	0x3e6afc7e	0.2294788
30	0x3f192eec	0.5983722
31	0x3f1db458	0.6160331
32	0x3e1d87b2	0.15383795
33	0xbe5c8db7	-0.21538435
34	0x3f0e36b5	0.55552226
35	0x3edfc07c	0.4370154
36	0x3da918cd	0.082566835
37	0xbea3085e	-0.3184232
38	0x3ed82d34	0.42221987
39	0x3ddefff1	0.10888661
40	0x3f1c81df	0.6113567
41	0x3e0652d0	0.13117528
42	0x3e7add4e	0.24498484
43	0xbf01b142	-0.506611
44	0xbe485d58	-0.19566858
45	0x3e9a3111	0.3011556
46	0xbe06ee58	-0.13176858
47	0xbf00959f	-0.50228304
48	0x3f357073	0.7087471
49	0xbe14f2b1	-0.14545704
50	0x3f04729a	0.5173737
51	0xbe8cb3b5	-0.27480856
52	0x3e7ae2bc	0.24500555
53	0xbe64b6cc	-0.22335356
54	0xbe0a8fa5	-0.13531359
55	0xbe22022a	-0.15821138
56	0xbdefa7c1	-0.117019184
57	0x3e5f9d92	0.21837452
58	0xbde85c71	-0.11345757
59	0x3eb56918	0.35431743
60	0xbcfa3348	-0.03054203
61	0x3c86a985	0.016438255
62	0xbe61d33f	-0.2205324
63	0xbe93eb2c	-0.2889036
64	0xbd29631d	-0.041354287
65	0xbf08de78	-0.5346446
66	0xbd4dcdb1	-0.05024499
67	0xbddf673e	-0.10908364
68	0xbc18e627	-0.009332216
69	0xbde8e073	-0.11370935
70	0x3eb3a61f	0.35087678
71	0x3ebe164f	0.37126395
72	0xbd1140ce	-0.035462193
73	0xbdff4c84	-0.12465766
74	0x3edda979	0.4329336
75	0x3f111ed8	0.5668769
76	0xbec4463a	-0.3833483
77	0xbd90e293	-0.070744656
78	0xbc9ba675	-0.019000271
79	0x3b370792	0.0027928096
80	0x3f3fd29b	0.74930733
81	0xbc961002	-0.01831818
82	0x3f0d37fc	0.5516355
83	0xbbc85257	-0.0061133313
84	0x3d101f1f	0.03518593
85	0xbed890b8	-0.42297912
86	0xbe5ab4fc	-0.21358103
87	0x3ed7962a	0.42106754
88	0x3e8b3089	0.27185467
89	0x3c1753ce	0.009236289
90	0x3f13a744	0.576771
91	0xbecc98c6	-0.39960307
92	0x3e77ba8f	0.2419226
93	0x3f19f6a7	0.60141987
94	0x3c600abf	0.013674437
95	0x3eff481b	0.498597
96	0x3df53ca7	0.11974459
97	0xbef0c201	-0.47023013
98	0xbebd0961	-0.36921218
99	0x3e8bb2de	0.27284902

act_out.weight f4 [1, 100]
0	0xbd11aa7d	-0.03556298
1	0x3b0a8775	0.0021137868
2	0xbe822e2a	-0.25425845
3	0xbc03b130	-0.00803785
4	0xbd4d9d78	-0.050199002
5	0x3dc21b55	0.094778694
6	0x3ef2ecfa	0.47446424
7	0x3cfffd78	0.031248793
8	0xbc7b9c6a	-0.015357116
9	0x3e0c9c60	0.13731527
10	0xbef955fc	-0.48698413
11	0x3e9a57b9	0.30145052
12	0x3e0ee78c	0.13955516
13	0x3e215e53	0.15758638
14	0x3df27b40	0.11839914
15	0xbd39b23d	-0.045335997
16	0x3e55cd2b	0.20879047
17	0x3e9f47d9	0.31109503
18	0xbdd11b1a	-0.10210247
19	0xbe23718b	-0.15961282
20	0xbda97d77	-0.08275884
21	0xbdf6c34d	-0.120489694
22	0x3e2d56b5	0.16927607
23	0x3e11aefd	0.14226909
24	0xbd56630d	-0.052340556
25	0x3dc9e44b	0.098579966
26	0x3d02ebfa	0.031963326
27	0x3e0d7f2f	0.13818048
28	0xbd8151dc	-0.063144416
29	0xbe88716a	-0.26649028
30	0x3e4e29b7	0.201331
31	0x3d3430f7	0.04399201
32	0x3de9cb47	0.11415725
33	0xbebb2d2a	-0.36557895
34	0xbd978248	-0.07397896
35	0xbd838e9d	-0.06423686
36	0xbe89ccaa	-0.2691396
37	0x3e591243	0.21198373
38	0xbe001f05	-0.12511833
39	0x3dab72cf	0.083715074
40	0x3d1da560	0.038487792
41	0xbe9ca895	-0.30597368
42	0xbe84e27a	-0.25954038
43	0x3d98b804	0.07456973
44	0xbeda9b29	-0.42696503
45	0xbe8aee78	-0.27135062
46	0xbde01147	-0.109407954
47	0x3d521ae7	0.051295187
48	0xbca01dc2	-0.01954544
49	0x3c9b356a	0.018946368
50	0x3e3b577a	0.18295088
51	0xbeada77d	-0.33916846
52	0x3e6746d3	0.22585611
53	0x3e0ffea5	0.14061983
54	0xbd8a9a9c	-0.06767771
55	0xbd9c115b	-0.07620498
56	0xbeca9f36	-0.39574593
57	0xbdd774f8	-0.10520357
58	0xbe3b1b71	-0.18272187
59	0xbe427242	-0.18988898
60	0xbe59ce03	-0.21269993
61	0x3dd7d895	0.105393566
62	0xbeaffbd6	-0.34371823
63	0xbeb97076	-0.36218613
64	0x3e3cb993	0.18430166
65	0x3e1031c2	0.14081481
66	0x3de6f9fb	0.11278149
67	0x3b9a1745	0.004702481
68	0x3e7bb7e4	0.24581867
69	0xbecb17a9	-0.3966649
70	0xbdd2d122	-0.10293795
71	0xbd89502c	-0.06704745
72	0x3e43fa84	0.19138533
73	0xbed36ecb	-0.41295466
74	0x3e2f3785	0.17111023
75	0x3e0be32a	0.13660875
76	0x3ea44bdf	0.32089135
77	0x3d6ad7ed	0.05733483
78	0xbe543ce3	-0.20726351
79	0x3ed24d74	0.41074717
80	0x3d011ed2	0.031523533
81	0x3e568820	0.20950365
82	0xbd4f5a9a	-0.050623514
83	0xbe260cc8	-0.16215813
84	0x3e786d20	0.24260378
85	0xbe139faa	-0.14416376
86	0x3bbdcfc9	0.005792592
87	0xbc0eeb9c	-0.008723166
88	0xbc9f9fcd	-0.019485379
89	0xbeed59de	-0.46357626
90	0x3d8f3060	0.06991649
91	0x3e1086bf	0.14113902
92	0xbe216121	-0.15759708
93	0x3d86add8	0.06576127
94	0x3e60cff3	0.21954326
95	0x3dca2956	0.098711655
96	0xbeb67944	-0.35639393
97	0x3d2a9ca2	0.041653283
98	0xbdca2018	-0.09869403
99	0x3eb6a4d3	0.35672626

std_out.weight f4 [1, 100]
0	0xbe9281c9	-0.28614643
1	0xbec64eb3	-0.38731918
2	0xbe8b000c	-0.27148473
3	0xbd89c288	-0.06726557
4	0xbedff1e4	-0.43739235
5	0x3d534ef3	0.051588964
6	0xbdf6d9ae	-0.12053238
7	0x3d3b0295	0.04565676
8	0x3d0a7060	0.033798575
9	0x3d2847d5	0.04108413
10	0xbdd054be	-0.10172413
11	0xbe18e00f	-0.14929222
12	0x3dd4fe22	0.104000345
13	0x3def3917	0.11680811
14	0x3d05cf3e	0.032668345
15	0x3e0fd788	0.14047062
16	0xbd880a24	-0.06642559
17	0x3c465e53	0.01210745
18	0xbec5c085	-0.38623443
19	0x3dbb55f1	0.091472514
20	0x3e29eeb5	0.16594966
21	0xbb810072	-0.0039368207
22	0xbdd21ecc	-0.1025978
23	0xbd72ae5b	-0.05924831
24	0x3efc6eaf	0.49303195
25	0x3ed7d750	0.42156458
26	0xbd863711	-0.06553472
27	0x3e3419d9	0.17587985
28	0xbe9478b3	-0.28998336
29	0xbc2d76f5	-0.010587444
30	0xbd7c243a	-0.061557986
31	0xbe82629b	-0.25465855
32	0xbe9ba1c6	-0.3039686
33	0x3dca8681	0.09888936
34	0xbe2ed1dd	-0.17072244
35	0xbe66347e	-0.22480962
36	0x3dd3a270	0.10333717
37	0xbcb4cb01	-0.022069456
38	0xbe2f01b1	-0.17090489
39	0xbe27e92d	-0.16397543
40	0xbe9e3c70	-0.30905485
41	0xbcc5c603	-0.02414227
42	0xbe119f3a	-0.14220896
43	0x3d35048e	0.044193797
44	0xbd33471e	-0.043768995
45	0xbde504bd	-0.111825444
46	0x3ed83328	0.4222653
47	0x3d33c2d6	0.043886982
48	0xbeaf9885	-0.3429605
49	0x3ce1f25d	0.027581388
50	0xbe602dfc	-0.21892542
51	0x3e69dcb9	0.22838105
52	0xbe6e7c6b	-0.23289649
53	0x3d599f17	0.053130236
54	0xbe21a614	-0.1578601
55	0x3e0fc75a	0.1404089
56	0x3d73d1dc	0.05952631
57	0x3c6740e4	0.014114592
58	0x3eea64b9	0.4577997
59	0x3c8155ab	0.01578792
60	0x3e34fa9b	0.17673723
61	0xbdb427fb	-0.08796688
62	0x3ebaa523	0.36454114
63	0xbc25915c	-0.010105457
64	0x3d81b8c9	0.06334073
65	0xbcfd8fb7	-0.030952318
66	0xbdcf9ea6	-0.10137682
67	0x3e6f8a4d	0.23392601
68	0xbeabb695	-0.33537737
69	0x3d819915	0.06328026
70	0xbd5bbe83	-0.053648483
71	0xbeace271	-0.3376651
72	0xbe7e4b3b	-0.24833386
73	0x3d5a2a27	0.053262856
74	0x3cb2ca62	0.02182502
75	0xbe96a912	-0.29425865
76	0xbcff3770	-0.031154364
77	0x3e275ad4	0.16343242
78	0xbd84db1e	-0.06487106
79	0xbdbc22a5	-0.091862954
80	0xbeaab934	-0.33344424
81	0xbde66da5	-0.11251382
82	0xbe8b2e15	-0.27183595
83	0x3e2a12eb	0.16608779
84	0x3d041067	0.032242205
85	0x3ce28306	0.027650367
86	0x3a5597b7	0.00081479124
87	0xbed939f9	-0.42427042
88	0xbe303dd2	-0.17211083
89	0xbdbe8b78	-0.09303945
90	0xbde1572d	-0.110029556
91	0x3e0341f8	0.12818134
92	0xbed62977	-0.4182851
93	0xbe90d9ad	-0.28291073
94	0xbd88cf9e	-0.06680225
95	0xbe035ed3	-0.12829141
96	0xbee03e83	-0.43797693
97	0xbd846869	-0.06465227
98	0x3e5ba06d	0.21447916
99	0xbc3f8c22	-0.011691125

exp_avg f4 [100, 3]
0	0x39801a1d	0.00024433518
1	0xb8c04854	-9.1687456e-05
2	0x381c0634	3.7199075e-05
3	0xb8814c44	-6.165405e-05
4	0xb88c3f01	-6.6874556e-05
5	0x38b961e1	8.839719e-05
6	0x3affb0ab	0.0019507607
7	0xb9a89ec5	-0.0003216175
8	0xb8473531	-4.7494836e-05
9	0x80000004	-6e-45
10	0x00000004	6e-45
11	0x00000004	6e-45
12	0x39b0a7a7	0.00033694247
13	0xb8e2dcd2	-0.00010817651
14	0xb7371d3e	-1.09144585e-05
15	0x00000000	0.0
16	0x00000000	0.0
17	0x00000000	0.0
18	0xb947395a	-0.00018999484
19	0xb997617b	-0.00028873593
20	0x39ab870c	0.0003271628
21	0x80000004	-6e-45
22	0x80000004	-6e-45
23	0x80000004	-6e-45
24	0x00000004	6e-45
25	0x00000004	6e-45
26	0x80000004	-6e-45
27	0xba84e385	-0.0010138607
28	0x3982fd6d	0.0002498435
29	0x37b564a5	2.1623748e-05
30	0x3b8001c0	0.0039064586
31	0xb9e17892	-0.00043005176
32	0xb9ea5934	-0.0004469842
33	0xbb11eead	-0.0022267506
34	0x3a014e71	0.0004932648
35	0x3886b05a	6.422466e-05
36	0xba848a7d	-0.0010112074
37	0x3980ed51	0.00024590877
38	0x3868e75d	5.5528584e-05
39	0x80000004	-6e-45
40	0x80000004	-6e-45
41	0x80000004	-6e-45
42	0x80000004	-6e-45
43	0x00000004	6e-45
44	0x80000004	-6e-45
45	0x00000000	0.0
46	0x00000000	0.0
47	0x00000000	0.0
48	0xbad64918	-0.0016348688
49	0x396d2b94	0.00022618315
50	0x3935113b	0.00017267924
51	0xbb1c3b40	-0.0023839027
52	0x39cd8a08	0.00039203488
53	0x388a59b3	6.5970606e-05
54	0x3a44ebf4	0.00075119664
55	0xb942822b	-0.00018549773
56	0x371f2806	9.486457e-06
57	0xb801455e	-3.08206e-05
58	0xb87b2246	-5.9874983e-05
59	0x3867b0d7	5.5239387e-05
60	0x3582210c	9.695373e-07
61	0x3760ba12	1.3394763e-05
62	0xb8fa693c	-0.000119405304
63	0xb7aab47b	-2.0349622e-05
64	0x3894a06d	7.0870716e-05
65	0x39a852b3	0.00032105073
66	0xbaae3fae	-0.0013294125
67	0x392be92a	0.00016394691
68	0x390bc8fa	0.00013330943
69	0xba8f083e	-0.001091249
70	0x391aa0d9	0.00014746505
71	0x395be9fa	0.0002097263
72	0xb613c70e	-2.2020572e-06
73	0x36c60013	5.9008685e-06
74	0xb883aa32	-6.278268e-05
75	0xb754472b	-1.2652755e-05
76	0xb791db67	-1.7387514e-05
77	0x3824bdab	3.927729e-05
78	0x00000000	0.0
79	0x00000000	0.0
80	0x00000000	0.0
81	0x80000004	-6e-45
82	0x80000004	-6e-45
83	0x80000004	-6e-45
84	0x39f077b6	0.0004586556
85	0xb8da0f9f	-0.0001039796
86	0xb86c2459	-5.6300636e-05
87	0x3b07fb90	0.0020749308
88	0xb988dc8c	-0.00026104262
89	0xb92edfed	-0.00016677352
90	0xbacc7e96	-0.001560169
91	0x3981e867	0.0002477795
92	0x3864b49a	5.4527634e-05
93	0xb9b9b544	-0.00035421003
94	0x38639b6e	5.4265773e-05
95	0xb7b88497	-2.1996251e-05
96	0xba6361c4	-0.0008673931
97	0x392dfaec	0.00016592041
98	0xb76f5eb6	-1.4267562e-05
99	0x3b37f68e	0.0028070542
100	0xb947c40a	-0.00019051149
101	0xb9163920	-0.00014326395
102	0x3a04779b	0.0005053223
103	0xb8e5bebd	-0.00010955099
104	0x3970ce78	0.00022965099
105	0x39f91cd0	0.00047514448
106	0xb8edd92f	-0.00011341494
107	0x35fcec3c	1.8844216e-06
108	0x3b0b317c	0.0021239212
109	0xb9a47e75	-0.00031374735
110	0x388282dc	6.2232575e-05
111	0x80000004	-6e-45
112	0x80000004	-6e-45
113	0x80000004	-6e-45
114	0x3a78053c	0.0009461229
115	0xb9859dd6	-0.00025485334
116	0xb84f81e4	-4.9473616e-05
117	0xba24d681	-0.0006288067
118	0x39004b7c	0.00012235151
119	0x3715a27d	8.918924e-06
120	0xb9b19186	-0.00033868494
121	0x369d2cc0	4.684174e-06
122	0x393863c2	0.0001758477
123	0x3b1d1f4b	0.002397495
124	0xb9c77cd3	-0.0003804924
125	0x38cd39a3	9.7858974e-05
126	0x3b034038	0.002002729
127	0xb98ffc19	-0.00027462913
128	0xb91de435	-0.000150577
129	0x00000000	0.0
130	0x00000000	0.0
131	0x00000000	0.0
132	0x3b5d4494	0.00337628
133	0xb9bdca5c	-0.0003619966
134	0xb9b21a77	-0.00033970524
135	0x3b0a56b9	0.002110882
136	0xb9a3cbee	-0.00031241722
137	0xb5dbb5a8	-1.636964e-06
138	0xb69158b4	-4.331663e-06
139	0x371b0618	9.240139e-06
140	0xb8faa0ee	-0.000119509044
141	0x00000000	0.0
142	0x00000000	0.0
143	0x00000000	0.0
144	0x38c5ac24	9.425756e-05
145	0xb8889f2b	-6.514633e-05
146	0x389919c2	7.300406e-05
147	0xb6d40a26	-6.319274e-06
148	0xb724104a	-9.778954e-06
149	0x3614d9f0	2.2180575e-06
150	0xbabe4e67	-0.0014519215
151	0x3931b620	0.00016947882
152	0x3944105c	0.00018698111
153	0x3b296125	0.0025845256
154	0xb93cfa9c	-0.00018022436
155	0xb8363c10	-4.344812e-05
156	0xbaea8af0	-0.001789419
157	0x3966d16d	0.00022012526
158	0x39397b46	0.00017688898
159	0x80000004	-6e-45
160	0x80000004	-6e-45
161	0x00000004	6e-45
162	0x37ad5b7d	2.066581e-05
163	0xb71b18fe	-9.244539e-06
164	0xb875606f	-5.8502363e-05
165	0xb728e617	-1.0067152e-05
166	0x344fbd88	1.9347328e-07
167	0xb86e08ae	-5.6751705e-05
168	0x3b4d28e8	0.00313049
169	0xb9de1280	-0.00042356923
170	0xb87daf30	-6.0483057e-05
171	0xb7c4bb65	-2.3452283e-05
172	0x3885d79e	6.382096e-05
173	0x39a0cfc8	0.00030672387
174	0xb6ad5e2b	-5.1667644e-06
175	0x3723b111	9.756784e-06
176	0xb93535bc	-0.00017281523
177	0x3ac39ea0	0.0014924593
178	0xb960ef94	-0.00021451554
179	0x38449d64	4.6876623e-05
180	0x3ade317d	0.0016952005
181	0xb9487f2d	-0.00019120863
182	0xb89a18c2	-7.347904e-05
183	0xba4e72cd	-0.0007875383
184	0x3935c47c	0.00017334701
185	0x36fa440e	7.458503e-06
186	0x3b2eba1f	0.002666123
187	0xb9469ac5	-0.00018940408
188	0xb90a2311	-0.00013173769
189	0x3b2c8680	0.0026325285
190	0xb9c67190	-0.00037850114
191	0x39862fcb	0.0002559408
192	0xbab109e0	-0.0013506971
193	0x39a9bf02	0.00032376504
194	0x381eec63	3.7890288e-05
195	0x00000000	0.0
196	0x00000000	0.0
197	0x00000000	0.0
198	0xba5c26a4	-0.0008398092
199	0x39413727	0.0001842646
200	0x372887ef	1.004523e-05
201	0x36ac5e96	5.1370107e-06
202	0x3797a370	1.807671e-05
203	0xb8a4e086	-7.86195e-05
204	0xb90206f6	-0.00012400359
205	0xb92d3141	-0.00016516914
206	0x3973fd71	0.000232687
207	0x3b4d2053	0.0031299784
208	0xb9e16dc1	-0.00042997117
209	0xb7ef0da8	-2.849738e-05
210	0x3a515206	0.000798494
211	0xb9051544	-0.0001269179
212	0xb8895dc8	-6.550137e-05
213	0x39fdbffc	0.0004839896
214	0xb90f6220	-0.00013674097
215	0x37cece2c	2.465312e-05
216	0xbabf9c48	-0.0014618719
217	0x39922a1a	0.00027878658
218	0xb91428a0	-0.00014129514
219	0x3b58f270	0.0033103488
220	0xb9a6508e	-0.00031722005
221	0xb9d73ce5	-0.00041053366
222	0xbaad6774	-0.0013229684
223	0x3941a70f	0.00018468148
224	0x390cdce3	0.00013433727
225	0xba9025ee	-0.0010997632
226	0x38d81ec6	0.000103054146
227	0x39317699	0.00016924216
228	0xb8f0e212	-0.00011486201
229	0xb94abad2	-0.00019333817
230	0x3931095b	0.0001688352
231	0xb9fdd7fc	-0.0004841684
232	0xb7b19ee8	-2.117404e-05
233	0xb8ed2cd5	-0.00011309391
234	0x385024d1	4.9625352e-05
235	0xb8c9afb9	-9.617158e-05
236	0xb918f884	-0.00014588429
237	0xb92d18f2	-0.00016507859
238	0xb986b1b5	-0.00025690874
239	0x398cdf92	0.00026869454
240	0xb99500ab	-0.00028419992
241	0xb7c67d9e	-2.3661934e-05
242	0x38ce093f	9.824568e-05
243	0xbac9bce4	-0.0015391377
244	0x39b50e46	0.00034533645
245	0x38833d7c	6.258019e-05
246	0x39c2cf4d	0.00037157015
247	0xb9051ecb	-0.0001269534
248	0xb88cb43c	-6.7092915e-05
249	0x378c43e1	1.672091e-05
250	0x36cb6b8c	6.0623915e-06
251	0xb8b37029	-8.5562766e-05
252	0xb8d3b08b	-0.00010094148
253	0xb91179f4	-0.00013873709
254	0x3906daeb	0.00012860789
255	0x80000004	-6e-45

exp_avg_sq f4 [100, 3]
0	0x36c42d53	5.8465316e-06
1	0x35d1e9fd	1.5639813e-06
2	0x3831d4ce	4.239828e-05
3	0x35949899	1.1071271e-06
4	0x34f81b44	4.6213438e-07
5	0x3701c690	7.735231e-06
6	0x398181f0	0.00024701608
7	0x38806987	6.1231716e-05
8	0x3ace31d2	0.00157314
9	0x000001f4	7e-43
10	0x000001f4	7e-43
11	0x000001f4	7e-43
12	0x373d41da	1.128061e-05
13	0x36383dd8	2.7454134e-06
14	0x38a3d383	7.811843e-05
15	0x00000000	0.0
16	0x00000000	0.0
17	0x00000000	0.0
18	0x3928c1b9	0.00016093896
19	0x37fdc0f0	3.0249794e-05
20	0x3afe50ea	0.0019402776
21	0x000001f4	7e-43
22	0x000001f4	7e-43
23	0x000001f4	7e-43
24	0x000001f4	7e-43
25	0x000001f4	7e-43
26	0x000001f4	7e-43
27	0x388c1a4e	6.68062e-05
28	0x37922f56	1.7426599e-05
29	0x39d3158b	0.00040261107
30	0x3a5e6461	0.00084835856
31	0x3891e482	6.956702e-05
32	0x3b176536	0.0023101098
33	0x399ffe22	0.00030516187
34	0x38a9e232	8.10068e-05
35	0x3afdac43	0.0019353706
36	0x388674fd	6.411409e-05
37	0x37900fd3	1.7173506e-05
38	0x39d58a58	0.000407296
39	0x000001f4	7e-43
40	0x000001f4	7e-43
41	0x000001f4	7e-43
42	0x000001f4	7e-43
43	0x000001f4	7e-43
44	0x000001f4	7e-43
45	0x00000000	0.0
46	0x00000000	0.0
47	0x00000000	0.0
48	0x39377be4	0.00017498393
49	0x383a4f15	4.4419507e-05
50	0x3aa02fc7	0.001222127
51	0x39b5da3b	0.00034685605
52	0x378dc8fb	1.6902099e-05
53	0x3a69cb62	0.0008918551
54	0x38369d1d	4.3538505e-05
55	0x373a6355	1.11095915e-05
56	0x39a3dba6	0.00031253434
57	0x376ffecb	1.4304834e-05
58	0x37a90352	2.0147916e-05
59	0x3a0df0a3	0.0005414581
60	0x369a514d	4.5990223e-06
61	0x369d1d2d	4.682361e-06
62	0x391d281b	0.00014987627
63	0x378a777a	1.6506518e-05
64	0x3771215e	1.4372488e-05
65	0x39dc196b	0.00041980608
66	0x38e15db5	0.0001074629
67	0x37beaeff	2.2731254e-05
68	0x39f72dfe	0.00047145778
69	0x389d66d8	7.5054995e-05
70	0x3788e6bb	1.6319906e-05
71	0x39b080b6	0.00033665233
72	0x356fe9f3	8.937488e-07
73	0x35e6e864	1.720397e-06
74	0x387d3f40	6.0378807e-05
75	0x367c5ffa	3.7606792e-06
76	0x370338df	7.82145e-06
77	0x39552545	0.00020327147
78	0x00000000	0.0
79	0x00000000	0.0
80	0x00000000	0.0
81	0x000001f4	7e-43
82	0x000001f4	7e-43
83	0x000001f4	7e-43
84	0x378a4219	1.6481661e-05
85	0x368a026f	4.113004e-06
86	0x38f40f82	0.00011637715
87	0x398989bf	0.00026233305
88	0x38518b88	4.995943e-05
89	0x3a86e2bd	0.0010290962
90	0x3917f068	0.0001449004
91	0x36fc2458	7.514416e-06
92	0x39c55bc6	0.00037643145
93	0x36fb3bd4	7.487348e-06
94	0x3600648b	1.913201e-06
95	0x382fe53e	4.193675e-05
96	0x383bfc6a	4.4819353e-05
97	0x374366de	1.1646856e-05
98	0x399237b0	0.0002788878
99	0x39edee41	0.00045381676
100	0x37d52aab	2.5411447e-05
101	0x3a9d2384	0.0011988734
102	0x37ba2ad6	2.2192875e-05
103	0x36bb315f	5.578782e-06
104	0x39283d05	0.0001604446
105	0x3792276b	1.7422912e-05
106	0x36950b08	4.4418302e-06
107	0x3903265c	0.00012507424
108	0x3989059e	0.0002613486
109	0x383f3ae7	4.5592806e-05
110	0x3a80edc4	0.0009836485
111	0x000001f4	7e-43
112	0x000001f4	7e-43
113	0x000001f4	7e-43
114	0x3880f189	6.148505e-05
115	0x3782c836	1.5590438e-05
116	0x39d234f9	0.0004009379
117	0x37c5f957	2.3600338e-05
118	0x36cfa524	6.1883056e-06
119	0x391b125a	0.00014788788
120	0x36d2de97	6.2844006e-06
121	0x35ef4214	1.7826119e-06
122	0x381d700f	3.753608e-05
123	0x39b037e0	0.00033610966
124	0x38661618	5.485685e-05
125	0x3a9e5f9a	0.0012082935
126	0x39813310	0.00024642842
127	0x382faf17	4.1886316e-05
128	0x3a6cc1c8	0.0009031561
129	0x00000000	0.0
130	0x00000000	0.0
131	0x00000000	0.0
132	0x3a267ffc	0.00063514686
133	0x381d528a	3.7508587e-05
134	0x3adae198	0.0016699312
135	0x399144c5	0.00027707792
136	0x388a6369	6.5988694e-05
137	0x3ac38b9a	0.0014918924
138	0x368fd274	4.286232e-06
139	0x36bd39d2	5.63937e-06
140	0x3975ddac	0.000234476
141	0x00000000	0.0
142	0x00000000	0.0
143	0x00000000	0.0
144	0x3616ae63	2.2453248e-06
145	0x350d7904	5.2702694e-07
146	0x3764f388	1.3646561e-05
147	0x341d8264	1.46692e-07
148	0x32eaa47f	2.731599e-08
149	0x36203349	2.387171e-06
150	0x390dea50	0.00013534096
151	0x380f6616	3.418893e-05
152	0x3a7ae7ec	0.0009571302
153	0x39c78263	0.00038053383
154	0x378f6e3f	1.7098266e-05
155	0x3a88f1fc	0.0010448094
156	0x3957d999	0.00020585059
157	0x3838bdfa	4.4045948e-05
158	0x3ab90690	0.0014116336
159	0x000001f4	7e-43
160	0x000001f4	7e-43
161	0x000001f4	7e-43
162	0x3672cd3b	3.618027e-06
163	0x368ce590	4.1990497e-06
164	0x38d18030	9.9897734e-05
165	0x36215a0d	2.4043286e-06
166	0x3689d6e8	4.1079365e-06
167	0x3902c5e0	0.0001247148
168	0x3a0ea923	0.00054420735
169	0x3851b33a	4.99964e-05
170	0x3ac9b70d	0.0015389636
171	0x374fdae2	1.2389124e-05
172	0x3738a255	1.10050505e-05
173	0x39a64795	0.0003171532
174	0x37594e91	1.2952501e-05
175	0x379041d8	1.7196799e-05
176	0x3a2fdd5c	0.00067087053
177	0x390de40a	0.00013531759
178	0x37eca5d6	2.8210616e-05
179	0x3a1cdc19	0.0005983725
180	0x39257957	0.00015780829
181	0x376ccc44	1.41142555e-05
182	0x39e9af91	0.0004457203
183	0x381bb725	3.7125446e-05
184	0x37235999	9.736418e-06
185	0x39727037	0.00023120722
186	0x39cdba44	0.00039239426
187	0x379e1c4c	1.8848245e-05
188	0x3a837da5	0.0010031952
189	0x39e740eb	0.0004410812
190	0x3787119f	1.610146e-05
191	0x3a8f5e5a	0.0010938153
192	0x38eadc09	0.00011198974
193	0x37f60684	2.932852e-05
194	0x3a398f98	0.0007078587
195	0x00000000	0.0
196	0x00000000	0.0
197	0x00000000	0.0
198	0x38325ed0	4.2526808e-05
199	0x373ad1a4	1.1135275e-05
200	0x398c4a8f	0.0002675843
201	0x33da133e	1.0154916e-07
202	0x34070f1a	1.2578349e-07
203	0x361eed6c	2.3682032e-06
204	0x382c353c	4.1057574e-05
205	0x37037a55	7.836691e-06
206	0x3a07cf84	0.00051807635
207	0x3a0edc10	0.0005449662
208	0x3857efc0	5.148328e-05
209	0x3acbcbd5	0.0015548418
210	0x38374fc6	4.3704895e-05
211	0x3738f37c	1.1023945e-05
212	0x39a32575	0.0003111769
213	0x379fc6b0	1.9046798e-05
214	0x36a50239	4.917642e-06
215	0x390fe987	0.00013724538
216	0x3900624b	0.00012243648
217	0x38067629	3.2058135e-05
218	0x3a4a95d5	0.0007728015
219	0x3a1beb9a	0.0005947888
220	0x383f3f47	4.559688e-05
221	0x3ad86a20	0.001651112
222	0x38e43a8a	0.00010882791
223	0x37c2dc52	2.3229197e-05
224	0x3a011d5a	0.0004925333
225	0x389deaa0	7.530046e-05
226	0x37a05516	1.9113108e-05
227	0x3a0b255b	0.00053079956
228	0x387c88ce	6.020889e-05
229	0x3733bf8e	1.0713831e-05
230	0x3a63162d	0.0008662667
231	0x37162177	8.948488e-06
232	0x34d8165f	4.0249412e-07
233	0x37f6e5c9	2.9432487e-05
234	0x380894a9	3.2563377e-05
235	0x381f9a60	3.8052327e-05
236	0x3a78d099	0.00094915327
237	0x38fcec71	0.00012060337
238	0x37bb225b	2.2308135e-05
239	0x3abe2e63	0.0014509674
240	0x36a0bd8c	4.7904377e-06
241	0x35b495bb	1.3454622e-06
242	0x380a7f2f	3.3020213e-05
243	0x3919e44e	0.00014676267
244	0x38219e71	3.853295e-05
245	0x3a732bc8	0.0009276238
246	0x372b53d9	1.0211917e-05
247	0x3631a760	2.647248e-06
248	0x387f780c	6.090854e-05
249	0x37a3da69	1.953282e-05
250	0x37c6808f	2.3663304e-05
251	0x3a149394	0.0005667743
252	0x382eb022	4.164887e-05
253	0x37027b96	7.777378e-06
254	0x3a03bf0e	0.0005025723
255	0x051d01e1	7.3824496e-36

exp_avg f4 [100]
0	0x3982efd6	0.00024974224
1	0xb7a0d14d	-1.917095e-05
2	0x3aeaa40a	0.0017901671
3	0x00000004	6e-45
4	0x39ae2c6e	0.0003322097
5	0x00000000	0.0
6	0x394dc5ac	0.00019623962
7	0x00000004	6e-45
8	0x00000004	6e-45
9	0xba83be03	-0.0010051135
10	0x3b6a3b84	0.003574104
11	0xbb14905e	-0.0022669057
12	0xba86aa72	-0.0010274185
13	0x00000004	6e-45
14	0x00000004	6e-45
15	0x00000000	0.0
16	0xbac2306c	-0.0014815456
17	0xbb0d1290	-0.0021525957
18	0x3a3ce798	0.0007206141
19	0xb8873cdd	-6.448638e-05
20	0x379fcb5e	1.9048977e-05
21	0x389de5c4	7.5291406e-05
22	0xba9fccbe	-0.0012191755
23	0xba894e6a	-0.001047564
24	0x3728934a	1.0047874e-05
25	0xb7ab7ab4	-2.0441927e-05
26	0x00000000	0.0
27	0x00000004	6e-45
28	0x39dfccec	0.00042686553
29	0x3afa40d6	0.0019092809
30	0xbab578f3	-0.001384525
31	0xb9b3b1d0	-0.0003427402
32	0xba6771da	-0.0008828916
33	0x3b3d548d	0.0028889508
34	0x3a14ad04	0.0005671533
35	0x39ee0af8	0.0004540307
36	0x3af472f2	0.0018649979
37	0x00000004	6e-45
38	0x3a666b08	0.00087897526
39	0xba274af4	-0.00063817133
40	0xb986e2c5	-0.00025727428
41	0x3b0ab96b	0.0021167647
42	0x3af449aa	0.0018637676
43	0x00000000	0.0
44	0x3b4d6a00	0.0031343699
45	0x3afa757e	0.0019108502
46	0x37ab605b	2.0429658e-05
47	0x00000000	0.0
48	0x390a3405	0.00013180084
49	0x36312a6c	2.6399748e-06
50	0xbaaa7bdb	-0.0013006883
51	0x3b2cf761	0.0026392567
52	0xbad1da8c	-0.0016010567
53	0x00000004	6e-45
54	0xb72e1e64	-1.0378284e-05
55	0x370c85c8	8.375799e-06
56	0x3b37bd81	0.0028036537
57	0x3895b7b0	7.139088e-05
58	0x37d025ec	2.4813191e-05
59	0x3aadf846	0.0013272844
60	0x3ac7b528	0.0015236484
61	0xba51aace	-0.0007998169
62	0x3b2e13ec	0.0026562167
63	0x3b2cd14a	0.0026369863
64	0xbab2a64e	-0.0013629885
65	0x00000000	0.0
66	0xba602f0e	-0.00085519336
67	0xb7a2b8a2	-1.9397881e-05
68	0x38f420ea	0.000116409574
69	0x3b37b906	0.0028033867
70	0x3a3ff562	0.00073226367
71	0x39f7d17c	0.0004726759
72	0xbab94189	-0.0014133911
73	0x3b48eae1	0.0030657577
74	0xbaa23698	-0.0012375889
75	0xba7f0920	-0.0009728838
76	0x38911393	6.917785e-05
77	0xba023d50	-0.0004968243
78	0xb90f0ebd	-0.00013643033
79	0x39105b43	0.00013766908
80	0xb96df133	-0.00022691935
81	0xbace4acf	-0.0015738847
82	0x39ae1f6a	0.00033211272
83	0x38307e0f	4.207907e-05
84	0x38a9111e	8.061736e-05
85	0x00000004	6e-45
86	0x00000004	6e-45
87	0x3870241c	5.725409e-05
88	0x390ffd7e	0.00013731976
89	0x3b5491ca	0.003243553
90	0xba02011b	-0.0004959271
91	0x00000000	0.0
92	0x3a92133f	0.0011144652
93	0xb9f6443d	-0.00046971618
94	0xbad6f3f6	-0.001639961
95	0xba37298b	-0.00069870864
96	0xbb1bb921	-0.0023761468
97	0x00000004	6e-45
98	0x379cbc00	1.8684193e-05
99	0xbb562364	-0.0032674903

exp_avg_sq f4 [100]
0	0x36e124fe	6.709829e-06
1	0x35acc6ce	1.2872858e-06
2	0x399c4d4a	0.00029812224
3	0x000001f4	7e-43
4	0x3759f9c5	1.2992362e-05
5	0x00000000	0.0
6	0x3941354f	0.00018425773
7	0x000001f4	7e-43
8	0x000001f4	7e-43
9	0x38a41be3	7.825324e-05
10	0x3a6781fc	0.000883132
11	0x39bc7b43	0.0003594999
12	0x389f72f6	7.603124e-05
13	0x000001f4	7e-43
14	0x000001f4	7e-43
15	0x00000000	0.0
16	0x39569fd0	0.00020468165
17	0x39bade2a	0.0003564221
18	0x38533a15	5.0360413e-05
19	0x37fed8ee	3.0380175e-05
20	0x370d80c9	8.43424e-06
21	0x37e75a7d	2.7579483e-05
22	0x390383fa	0.00012542299
23	0x38b9735b	8.842974e-05
24	0x361e93cb	2.3629862e-06
25	0x37306a40	1.0515156e-05
26	0x00000000	0.0
27	0x000001f4	7e-43
28	0x379ff6f6	1.9069277e-05
29	0x399fc345	0.0003047233
30	0x391bffb3	0.00014877207
31	0x3712da98	8.7531735e-06
32	0x385d03a5	5.26939e-05
33	0x39f2dd94	0.00046322925
34	0x37d8b346	2.5832687e-05
35	0x37a90b82	2.0151729e-05
36	0x399ec4b6	0.0003028267
37	0x000001f4	7e-43
38	0x3897c7b5	7.2374394e-05
39	0x37e8d286	2.7754588e-05
40	0x36fe4f13	7.5789953e-06
41	0x39c92d81	0.0003837161
42	0x3993a679	0.00028162057
43	0x00000000	0.0
44	0x3a298f70	0.0006468212
45	0x39adbf38	0.000331396
46	0x371c3e52	9.312835e-06
47	0x00000000	0.0
48	0x3626bb8d	2.4845097e-06
49	0x343596e1	1.6911828e-07
50	0x3925b8bd	0.00015804447
51	0x39cee03c	0.0003945845
52	0x3979a3b9	0.00023807482
53	0x000001f4	7e-43
54	0x36ef240c	7.1269515e-06
55	0x36bfc454	5.715099e-06
56	0x3a16f18f	0.0005758041
57	0x37af5342	2.0900396e-05
58	0x37ecddfc	2.8236762e-05
59	0x3927e50a	0.00016011685
60	0x392f0ec1	0.00016694797
61	0x383737b2	4.368247e-05
62	0x39d0ceb9	0.00039826872
63	0x39e8ea9b	0.00044425283
64	0x390a201a	0.00013172664
65	0x00000000	0.0
66	0x38529027	5.0202154e-05
67	0x34377eb0	1.7089292e-07
68	0x3843fadf	4.6725265e-05
69	0x3a16ca7b	0.0005752218
70	0x3855445a	5.0846815e-05
71	0x37b86cb8	2.1985135e-05
72	0x39187835	0.0001454063
73	0x3a218d2c	0.0006162699
74	0x3905fcc1	0.00012778027
75	0x38b8befe	8.809379e-05
76	0x3890c181	6.902498e-05
77	0x371a2b1c	9.1891525e-06
78	0x3887a0de	6.4672655e-05
79	0x3910a757	0.00013795249
80	0x36be2704	5.6669833e-06
81	0x3935f092	0.00017351125
82	0x374a4d4b	1.2058134e-05
83	0x38245666	3.918111e-05
84	0x3847895c	4.7573223e-05
85	0x058621a4	1.2613657e-35
86	0x000001f4	7e-43
87	0x35f6d7ee	1.8391272e-06
88	0x36160eff	2.236047e-06
89	0x3a556dd8	0.0008141673
90	0x37c10a94	2.3012319e-05
91	0x00000000	0.0
92	0x38f7872f	0.00011803058
93	0x37af7cb3	2.0919693e-05
94	0x394616b3	0.00018891208
95	0x383a8273	4.4467346e-05
96	0x39831652	0.00025002897
97	0x000001f4	7e-43
98	0x3710a20d	8.620799e-06
99	0x39f26951	0.00046236304

exp_avg f4 [1, 100]
0	0xbaefcfb0	-0.0018296149
1	0xbb7b6c60	-0.0038364157
2	0xbb079c94	-0.0020692693
3	0x80000004	-6e-45
4	0xba5beea4	-0.0008389747
5	0x00000000	0.0
6	0x39ffb254	0.00048770255
7	0x00000004	6e-45
8	0x80000004	-6e-45
9	0xbb36b051	-0.002787609
10	0xbad795d0	-0.0016447846
11	0xbb016587	-0.0019744353
12	0xba9cf52d	-0.0011974924
13	0x00000004	6e-45
14	0x00000004	6e-45
15	0x00000000	0.0
16	0xbb80f142	-0.00393501
17	0xbb4e5882	-0.003148586
18	0xbaeaf618	-0.0017926125
19	0xb8a1cf28	-7.715664e-05
20	0xb84812d5	-4.7701255e-05
21	0xb89d11b0	-7.489638e-05
22	0xbbbef881	-0.005827964
23	0xbbc3b4a4	-0.005972462
24	0xb84f9103	-4.94877e-05
25	0xb7d0b9ac	-2.4881992e-05
26	0x00000000	0.0
27	0x00000004	6e-45
28	0xbb394e4c	-0.0028275428
29	0xbab16d9c	-0.0013536694
30	0xbbaae86f	-0.0052156965
31	0xbbe7f12e	-0.0070783114
32	0xbb9ae09a	-0.0047264816
33	0xba97ab52	-0.0011571443
34	0xbb830820	-0.0039987713
35	0xbaa9ba74	-0.0012949244
36	0xbae4ad0b	-0.001744659
37	0x00000004	6e-45
38	0xba5a4c6a	-0.00083274266
39	0xbb26934a	-0.002541738
40	0xbbbd779f	-0.005782082
41	0xbb483609	-0.0030549786
42	0xbb24fd11	-0.0025175253
43	0x00000000	0.0
44	0xbad2612a	-0.0016050686
45	0xbac951e0	-0.0015359484
46	0xb7fadf65	-2.9906349e-05
47	0x00000000	0.0
48	0xbb718513	-0.0036853
49	0xb890fca3	-6.913512e-05
50	0xbb868cb3	-0.004106128
51	0xba2af634	-0.00065216725
52	0xbb3b30ae	-0.002856295
53	0x00000004	6e-45
54	0xb7736d0f	-1.4509321e-05
55	0xb8a742ea	-7.975644e-05
56	0xbad2c0de	-0.0016079207
57	0x38af6bb9	8.364715e-05
58	0xb8410bd9	-4.602582e-05
59	0xbafda224	-0.001935069
60	0xbaf770e8	-0.0018878253
61	0xbaf39191	-0.0018582811
62	0xba27b365	-0.00063972763
63	0xba446ed9	-0.0007493324
64	0xbb0c1b4b	-0.0021378573
65	0x00000000	0.0
66	0xba5e4b0a	-0.00084798096
67	0x38e54113	0.00010931692
68	0x39b0e86c	0.00033742504
69	0xba6bb872	-0.0008992023
70	0xbb060e98	-0.0020455476
71	0xbaf440cd	-0.0018635035
72	0xbb11b6ce	-0.0022234204
73	0xbaf26542	-0.0018493312
74	0xbba4201b	-0.00500871
75	0xbb5c6e96	-0.003363525
76	0x3930516d	0.00016815001
77	0x38b5d5b9	8.6705615e-05
78	0x37a64bcb	1.9824036e-05
79	0x3a13ed18	0.00056429347
80	0xbbbba552	-0.005726495
81	0xbac8368c	-0.0015275045
82	0xbb0133c5	-0.0019714695
83	0xb84a002c	-4.8160713e-05
84	0x39c42dde	0.00037418207
85	0x80000004	-6e-45
86	0x00000004	6e-45
87	0xbb1ecbc2	-0.0024230336
88	0xba9a8da0	-0.0011791475
89	0xbb1d4405	-0.0023996842
90	0xbba9d962	-0.0051833848
91	0x00000000	0.0
92	0xb8de2c30	-0.000105940155
93	0xbb45d6e4	-0.00301879
94	0xbb3ee471	-0.002912786
95	0xbb9e15ed	-0.004824391
96	0x38fdae5e	0.000120964585
97	0x80000004	-6e-45
98	0xb8a9d1fb	-8.09766e-05
99	0xbab19374	-0.0013547973

exp_avg_sq f4 [1, 100]
0	0x3a5c822b	0.00084117305
1	0x3b199056	0.0023431978
2	0x3a94e24b	0.0011358944
3	0x000001f4	7e-43
4	0x3a9a71a3	0.0011783134
5	0x00000000	0.0
6	0x3a6cc599	0.000903213
7	0x000001f4	7e-43
8	0x000001f4	7e-43
9	0x39f10a3f	0.00045974736
10	0x3a11c6e7	0.000556095
11	0x398bb6b0	0.0002664826
12	0x39194886	0.00014618234
13	0x000001f4	7e-43
14	0x000001f4	7e-43
15	0x00000000	0.0
16	0x3a7a7799	0.00095545646
17	0x3a8e6938	0.0010865098
18	0x3aa0865f	0.0012247077
19	0x39aa4c89	0.0003248195
20	0x38a9f4aa	8.10412e-05
21	0x39cceaa0	0.0003908472
22	0x3b156db5	0.0022800986
23	0x3b16417b	0.0022927213
24	0x383157e5	4.2281947e-05
25	0x390b9599	0.00013311802
26	0x00000000	0.0
27	0x000001f4	7e-43
28	0x3af499d6	0.0018661569
29	0x3a1f499e	0.00060763385
30	0x3b21bc78	0.0024678987
31	0x3b974bba	0.0046171816
32	0x3b0d9222	0.0021601995
33	0x392e755f	0.00016637657
34	0x3b25ac26	0.002527961
35	0x3a57725c	0.000821864
36	0x399bda01	0.0002972633
37	0x000001f4	7e-43
38	0x3b064b61	0.0020491707
39	0x39b80c23	0.00035104257
40	0x3b446016	0.0029964498
41	0x3a58ed0d	0.00082750694
42	0x3a6a4826	0.00089371426
43	0x00000000	0.0
44	0x39f5732b	0.00046815848
45	0x3a378bf3	0.000700175
46	0x37a8b1b5	2.0109912e-05
47	0x00000000	0.0
48	0x3b7e829f	0.003883518
49	0x37e8b65e	2.7741477e-05
50	0x3ac97f3d	0.0015373003
51	0x3830f19b	4.2186683e-05
52	0x39dd53b2	0.00042214763
53	0x000001f4	7e-43
54	0x3a7b1553	0.00095780677
55	0x390b76be	0.00013300308
56	0x398657da	0.00025623926
57	0x3a7c963b	0.0009635423
58	0x38572c3e	5.13012e-05
59	0x3a6610a8	0.00087762857
60	0x398bf3ff	0.00026693937
61	0x3a22e27e	0.00062135595
62	0x383a17d7	4.436806e-05
63	0x38cf1173	9.873779e-05
64	0x3991f9e9	0.00027842753
65	0x00000000	0.0
66	0x393abb9a	0.0001780823
67	0x398a9112	0.00026429497
68	0x3a597764	0.00082956837
69	0x38d43b30	0.00010119972
70	0x39f44e84	0.00046597805
71	0x3a3c5727	0.00071846176
72	0x39dceee7	0.00042139666
73	0x39b88461	0.00035193845
74	0x3abb5293	0.0014291577
75	0x3a9e9bb4	0.0012100847
76	0x3a1a72f1	0.00058917614
77	0x384326e1	4.652783e-05
78	0x39837407	0.00025072714
79	0x3a961838	0.001145131
80	0x3b3eead9	0.002913168
81	0x3960cc45	0.00021438401
82	0x3b5bbfc0	0.003353104
83	0x3a42c5a3	0.0007429963
84	0x3a274709	0.00063811295
85	0x03d27758	1.2370091e-36
86	0x000001f4	7e-43
87	0x3a55340e	0.0008133062
88	0x398a1518	0.00026337127
89	0x3a2d76ea	0.0006617146
90	0x3afb48d1	0.0019171481
91	0x00000000	0.0
92	0x39b44b8b	0.0003438856
93	0x3ac5bd78	0.0015086373
94	0x3a0a4a4d	0.0005275354
95	0x3ad144fd	0.0015965995
96	0x39aecfaa	0.00033342588
97	0x000001f4	7e-43
98	0x390321a9	0.00012505673
99	0x3a6adfa7	0.00089597184

exp_avg f4 [1, 100]
0	0x373745b6	1.0923881e-05
1	0x375f912c	1.3325636e-05
2	0x385534ba	5.0832263e-05
3	0x80000004	-6e-45
4	0x3825ecb3	3.955951e-05
5	0x00000000	0.0
6	0xb90925a0	-0.00013079355
7	0x80000004	-6e-45
8	0x00000004	6e-45
9	0xb701cdba	-7.736899e-06
10	0x38e3efaf	0.00010868848
11	0x36c2c800	5.8049336e-06
12	0xb69a5edc	-4.6006007e-06
13	0x80000004	-6e-45
14	0x80000004	-6e-45
15	0x00000000	0.0
16	0x36b54978	5.4027732e-06
17	0xb9174b3e	-0.00014428512
18	0x35efa9d0	1.785631e-06
19	0x35f66f67	1.8360851e-06
20	0x3513c630	5.505017e-07
21	0x35cb578d	1.5150159e-06
22	0xb7aa0c94	-2.0271436e-05
23	0xb6bbee90	-5.6008066e-06
24	0x3572ae3b	9.0405564e-07
25	0x360e4fa8	2.1206015e-06
26	0x00000000	0.0
27	0x00000004	6e-45
28	0x389e96de	7.562128e-05
29	0x38514ef1	4.9903003e-05
30	0xb91409ac	-0.00014117983
31	0x3869b2e8	5.571815e-05
32	0x38130e01	3.5060573e-05
33	0x38b642fe	8.6909145e-05
34	0x38af7b0c	8.3675695e-05
35	0x362fa3a0	2.6172274e-06
36	0x38844d8f	6.308697e-05
37	0x80000004	-6e-45
38	0x3792a89d	1.7483073e-05
39	0x36f44be0	7.2805997e-06
40	0x385b5e72	5.2301628e-05
41	0x38d5bc97	0.00010191759
42	0x38960cc0	7.154932e-05
43	0x00000000	0.0
44	0x38d244bb	0.000100263824
45	0x384224ec	4.628759e-05
46	0x34d437ff	3.952882e-07
47	0x00000000	0.0
48	0x38943054	7.066192e-05
49	0xb6ae601a	-5.196792e-06
50	0x37b68258	2.1756787e-05
51	0x388c7813	6.698086e-05
52	0xb7be9436	-2.2718781e-05
53	0x80000004	-6e-45
54	0x36a4c193	4.910116e-06
55	0x3597cd3c	1.1310108e-06
56	0x38c77779	9.511313e-05
57	0x3600fc21	1.9220245e-06
58	0x34d46dad	3.9567877e-07
59	0x37ff51ef	3.0436522e-05
60	0x388220b8	6.2049774e-05
61	0xb7510602	-1.245877e-05
62	0x388079e4	6.1262195e-05
63	0x38937ac9	7.032377e-05
64	0xb6155030	-2.2249405e-06
65	0x00000000	0.0
66	0x36b0a476	5.2643545e-06
67	0xb88a99d5	-6.609006e-05
68	0xb8c4b538	-9.379763e-05
69	0x389be4d7	7.433601e-05
70	0xb77a1989	-1.4907107e-05
71	0x37b6ca8d	2.179041e-05
72	0x37d1a2ed	2.499061e-05
73	0x38c1e791	9.24609e-05
74	0xb6d388c8	-6.3042135e-06
75	0xb7ec13bb	-2.814258e-05
76	0xb89e3c9a	-7.545315e-05
77	0xb848d23f	-4.7879523e-05
78	0x362a8a8c	2.541262e-06
79	0xb9216eba	-0.00015395405
80	0x37867224	1.6027196e-05
81	0x3718fff6	9.119502e-06
82	0x37d33083	2.517575e-05
83	0x3659842a	3.241245e-06
84	0xb8dd8a02	-0.00010563807
85	0x00000004	6e-45
86	0x00000004	6e-45
87	0xb6b1d5b8	-5.299891e-06
88	0xb7aa9e74	-2.0339365e-05
89	0x38d18434	9.990521e-05
90	0x37a24980	1.9346131e-05
91	0x00000000	0.0
92	0x37583296	1.2886381e-05
93	0x3523edc0	6.1068204e-07
94	0x36f870a8	7.404091e-06
95	0xb6cd4830	-6.11788e-06
96	0x37658e20	1.3682555e-05
97	0x00000004	6e-45
98	0x35b2aa08	1.3311519e-06
99	0xb9337d00	-0.00017117336

exp_avg_sq f4 [1, 100]
0	0x359ca1bb	1.1669975e-06
1	0x36afc829	5.238708e-06
2	0x361f841c	2.3769744e-06
3	0x000001f4	7e-43
4	0x34fa1868	4.6583887e-07
5	0x00000000	0.0
6	0x36b0e2d0	5.271613e-06
7	0x000001f4	7e-43
8	0x000001f4	7e-43
9	0x3540e3dc	7.185715e-07
10	0x35f0a59f	1.7929596e-06
11	0x34ad29ce	3.2254178e-07
12	0x33f8ecce	1.15914744e-07
13	0x000001f4	7e-43
14	0x000001f4	7e-43
15	0x00000000	0.0
16	0x3613301e	2.1932715e-06
17	0x3701884d	7.720734e-06
18	0x3625d326	2.470982e-06
19	0x335a53a2	5.0833144e-08
20	0x32d6240c	2.4929271e-08
21	0x33884a5d	6.34652e-08
22	0x36d6e69d	6.404544e-06
23	0x36cc1b92	6.0828834e-06
24	0x31db29be	6.3784844e-09
25	0x321c869f	9.111004e-09
26	0x00000000	0.0
27	0x000001f4	7e-43
28	0x35b00fb3	1.3117591e-06
29	0x35cefc2c	1.5421588e-06
30	0x37579973	1.2850726e-05
31	0x369fe273	4.7649314e-06
32	0x360b74a0	2.0780499e-06
33	0x35266a6e	6.1994695e-07
34	0x36073c82	2.0151788e-06
35	0x358622de	9.993926e-07
36	0x3542540b	7.239293e-07
37	0x000001f4	7e-43
38	0x34f90678	4.638457e-07
39	0x350eae47	5.315273e-07
40	0x3665d139	3.4245443e-06
41	0x3606d15b	2.0089417e-06
42	0x3617182a	2.2514819e-06
43	0x00000000	0.0
44	0x35da9097	1.6284347e-06
45	0x35d3225e	1.5730727e-06
46	0x31cbc318	5.930257e-09
47	0x00000000	0.0
48	0x3609bcbf	2.0524456e-06
49	0x33a9a6cb	7.900015e-08
50	0x36084f33	2.031168e-06
51	0x34577b70	2.0068342e-07
52	0x3599b349	1.1451567e-06
53	0x000001f4	7e-43
54	0x33d39dae	9.854135e-08
55	0x330ca8a7	3.274968e-08
56	0x355ddd40	8.2650877e-07
57	0x347314af	2.2638663e-07
58	0x329dbd7c	1.8363373e-08
59	0x3617a0e2	2.25944e-06
60	0x3545a21a	7.362411e-07
61	0x34b13e7d	3.3014285e-07
62	0x3451e55b	1.9548081e-07
63	0x34e351b6	4.2341497e-07
64	0x34bd3a59	3.5246447e-07
65	0x00000000	0.0
66	0x33b50b4c	8.430524e-08
67	0x35c03494	1.4320417e-06
68	0x36695548	3.4769346e-06
69	0x34cd3860	3.8225244e-07
70	0x358b31bd	1.0370783e-06
71	0x352c3cbd	6.416338e-07
72	0x35023420	4.8504626e-07
73	0x35950a86	1.1104428e-06
74	0x36747ad8	3.6430338e-06
75	0x36455131	2.9402547e-06
76	0x3628152a	2.504627e-06
77	0x35270414	6.221828e-07
78	0x3333afdc	4.183663e-08
79	0x36efda46	7.1481654e-06
80	0x36912bc4	4.3264317e-06
81	0x3464633d	2.1270257e-07
82	0x35866f73	1.0016214e-06
83	0x340e5da2	1.3258844e-07
84	0x366bd711	3.5142914e-06
85	0x05f55e97	2.3074436e-35
86	0x00006be4	3.8704e-41
87	0x3612c0bc	2.1867882e-06
88	0x35498fe2	7.508771e-07
89	0x3600716f	1.9139513e-06
90	0x3671f6c6	3.605544e-06
91	0x00000000	0.0
92	0x34b0497e	3.2836027e-07
93	0x360d3075	2.1038843e-06
94	0x3537b978	6.8442705e-07
95	0x36250922	2.4592232e-06
96	0x34500f5e	1.93771e-07
97	0x000001f4	7e-43
98	0x32d3d302	2.4659588e-08
99	0x37023214	7.7602635e-06
