trained_modules/PPO_critic.pth (torch, 9601 bytes, 9 tensors)

fc1.weight f4 [100, 3]
0	0x3e054c4a	0.13017383
1	0xbb35b187	-0.0027724223
2	0xbd0a8ce8	-0.033825785
3	0x3ea11782	0.31463248
4	0xbd8c0c7a	-0.06838317
5	0xbe654713	-0.22390394
6	0xbdce7407	-0.10080724
7	0x3dc132ab	0.09433492
8	0xbc19a33f	-0.0093773
9	0xbde38143	-0.11108639
10	0xbf1c07e5	-0.60949546
11	0x3eab9772	0.3351398
12	0xbede8fde	-0.43469137
13	0x3f6b46d5	0.91904956
14	0x3e3d6e53	0.18499117
15	0x3e902e45	0.281603
16	0x3f86c156	1.0527751
17	0x3e7f27aa	0.24917474
18	0xbe25ca8b	-0.16190545
19	0xbf391b6c	-0.7230747
20	0xbdfa72c1	-0.12228919
21	0x3f55adb3	0.8346817
22	0xbea5dd17	-0.3239524
23	0xbe195e2c	-0.1497733
24	0x3ee799ea	0.45234615
25	0x3f307bf0	0.68939114
26	0x3e137ca2	0.14403012
27	0x3def0b1a	0.11672039
28	0x3faea0fd	1.364288
29	0x3e2c3ed8	0.16820848
30	0xbd6bb6ab	-0.057547253
31	0xbe98ab3e	-0.29818147
32	0x3f06d518	0.52668905
33	0x3f4e33e0	0.80547905
34	0xbe87e75a	-0.26543695
35	0xbe4db2b9	-0.20087709
36	0xbb1bbe42	-0.0023764526
37	0x3de4956f	0.11161315
38	0x3d5e6c48	0.054302484
39	0x3ed661a6	0.41871375
40	0x3eb16ff0	0.34655714
41	0x3de6614d	0.112490274
42	0x3f07c36c	0.53032565
43	0x3f83fb4c	1.0311065
44	0x3e5aaab2	0.21354178
45	0x3cc9895c	0.02460163
46	0xbdbc3cbf	-0.09191274
47	0x3c98b26b	0.018639764
48	0x3d9c40ef	0.076295726
49	0xbf26b066	-0.6511291
50	0x3e69d20b	0.22834031
51	0xbd5a250a	-0.05325798
52	0x3b6fdff7	0.0036602
53	0xbd31ed9f	-0.043439504
54	0xbd844f06	-0.06460385
55	0xbc2885ff	-0.010285853
56	0xbcb8f018	-0.022575423
57	0xbd087b76	-0.033320867
58	0xbf102e25	-0.5632041
59	0xbe82ee4a	-0.25572425
60	0xbebf5592	-0.37369972
61	0x3f002ed4	0.50071454
62	0x3d4b0c9c	0.049572572
63	0x3eaca25d	0.33717623
64	0xbf36df90	-0.7143488
65	0xbdcd2599	-0.10016937
66	0x3ef9baf8	0.48775458
67	0x3e63289c	0.2218346
68	0xbdb53f0d	-0.088499166
69	0x3ee6ac48	0.45053315
70	0x3efc87dc	0.49322402
71	0xbd358171	-0.044312898
72	0x3e8bf32d	0.27333966
73	0x3e8ee86f	0.27911708
74	0x3dac5354	0.08414331
75	0x38ea6497	0.00011176726
76	0x3d0af778	0.03392741
77	0xbd84da5f	-0.064869635
78	0xbe9c187c	-0.3048743
79	0x3f4dd515	0.8040326
80	0x3e1873d5	0.14887936
81	0xbef1d0ba	-0.47229558
82	0xbdaae778	-0.083449304
83	0xbd4ab849	-0.049492154
84	0x3e13b39f	0.14423989
85	0xbf4cb295	-0.79959995
86	0x3e65adc5	0.22429569
87	0x3dfdc980	0.12391949
88	0x3f1c71e6	0.61111295
89	0xbda37d79	-0.079829164
90	0x3edecf1e	0.43517393
91	0xbe4718f6	-0.19443116
92	0xbe60ded8	-0.21960008
93	0xbb501e1c	-0.0031756228
94	0xbdfb3856	-0.122666046
95	0xbbf5c444	-0.0075002033
96	0xbe9b71cb	-0.30360255
97	0xbf894da2	-1.0726817
98	0x3e22bf86	0.15893373
99	0x3e42937c	0.19001573
100	0xbed5f4a1	-0.417882
101	0xbe3f131a	-0.1865963
102	0x3f19a949	0.60023934
103	0x3f207ab9	0.6268726
104	0x3e122dbe	0.14275262
105	0x3dab5da8	0.08367473
106	0x3e89f75e	0.2694654
107	0x3d063d81	0.0327735
108	0x3deb08d8	0.11476296
109	0xbe4f900c	-0.20269793
110	0x3eb2857b	0.34867463
111	0x3ee3a8c3	0.44464692
112	0xbf5d3360	-0.8640652
113	0xbc924038	-0.017852888
114	0xbeded6f4	-0.4352337
115	0x3f3b89f8	0.732574
116	0x3e65bf4d	0.22436257
117	0xbe02f38e	-0.12788221
118	0x3fa69b73	1.3016189
119	0x3e5fffff	0.21874999
120	0x3e0bedc1	0.13664915
121	0xbed04da0	-0.40684223
122	0x3e4f8f13	0.20269422
123	0x3eb83ee7	0.3598549
124	0x3f6e51bb	0.9309346
125	0x3e675221	0.22589923
126	0x3f0a774d	0.5408829
127	0xbf7fc1a8	-0.9990487
128	0xbe209ea4	-0.15685517
129	0x3e3f73b2	0.18696478
130	0xbf0ac309	-0.5420385
131	0x3e70a720	0.23501253
132	0x3eebc39a	0.4604767
133	0x3f022a3a	0.5084568
134	0x3d6eb4be	0.058277838
135	0xbb6c7240	-0.003607884
136	0xbb5b6cf0	-0.003348168
137	0xbd418f1f	-0.04725563
138	0x3ec076ce	0.3759064
139	0xbf03235d	-0.51225835
140	0xbde1f348	-0.1103273
141	0x3e86e283	0.2634469
142	0xbe20c4cd	-0.15700074
143	0x3e741cf1	0.23839165
144	0x3e22b47c	0.15889162
145	0x3eceba49	0.403765
146	0x3ca45b6a	0.02006312
147	0x3ed41458	0.4142177
148	0x3db2874c	0.08717212
149	0xbe17ebd5	-0.14836057
150	0x3e6edf52	0.23327377
151	0x3e579aaa	0.21055093
152	0x3c5ba7d4	0.013406713
153	0xbe988917	-0.2979209
154	0xbf248a66	-0.6427368
155	0xbe25852b	-0.16164081
156	0xbe1b4c5a	-0.15165845
157	0xbe1738cc	-0.1476776
158	0x3de152e3	0.110021375
159	0xbe0fc8d8	-0.1404146
160	0x3d078614	0.03308685
161	0x3d3feb36	0.046855174
162	0x3efd62ec	0.49489534
163	0x3ec44474	0.38333476
164	0xbe2b1c68	-0.16710055
165	0xbea7c7e0	-0.3276968
166	0x3f7118cb	0.94178456
167	0x3e36ee96	0.17864451
168	0x3eb10805	0.3457643
169	0xbf8600ca	-1.0468991
170	0x3ca6a01b	0.020340016
171	0x3ec4281e	0.38311857
172	0x3f843a71	1.0330335
173	0x3d5c6fe8	0.05381766
174	0x3ece4b91	0.40292028
175	0xbf2c32b8	-0.6726489
176	0xbe9a6ce4	-0.30161202
177	0x3ae5735c	0.0017505693
178	0x3d7bda4e	0.06148749
179	0xbc969fa4	-0.01838667
180	0x3e277211	0.16352107
181	0x3cce0208	0.025147453
182	0xbcf74d07	-0.030188097
183	0x3d684e6a	0.056715406
184	0xbf262184	-0.6489489
185	0xbda0ac09	-0.07845313
186	0x3ed0f226	0.40809745
187	0xbb999666	-0.0046871183
188	0xbc9d13d2	-0.01917449
189	0xbe00f7a6	-0.1259447
190	0xbf2cce70	-0.675025
191	0xbe03b5d9	-0.12862338
192	0x3da5e7c4	0.081008464
193	0xbf46390f	-0.77430815
194	0xbe12e20e	-0.14344046
195	0x3f050adb	0.5196969
196	0x3d0dad18	0.034588903
197	0xbe436476	-0.19081292
198	0x3d44c9d2	0.048044033
199	0x3f57f6be	0.84360874
200	0x3e54c3d8	0.20777833
201	0x3ec74309	0.3891833
202	0xbea29188	-0.31751657
203	0xbea582bf	-0.32326314
204	0xbd942225	-0.07233075
205	0x3f3dca8b	0.7413718
206	0x3e0969e8	0.13419306
207	0xbdc9c850	-0.0985266
208	0xbf3830ab	-0.7194926
209	0xbe0dfe52	-0.13866547
210	0x3ed3492f	0.41266772
211	0xbe8b3901	-0.27191928
212	0xbe8f74b8	-0.28018737
213	0x3ef0aa16	0.47004765
214	0xbf7a35c5	-0.97738296
215	0xbe1ef2a3	-0.15522246
216	0x3eded355	0.4352061
217	0x3f13a350	0.5767107
218	0x3dd9fcdd	0.10643933
219	0xbe3951e4	-0.18097645
220	0xbf46405c	-0.77441955
221	0xbe220d14	-0.15825301
222	0x3f4afcbf	0.7929191
223	0xbf6d55f2	-0.9270927
224	0xbe3f17dd	-0.18661447
225	0xbc8742b9	-0.016511308
226	0xbf286fea	-0.6579577
227	0xbdf7a3ee	-0.12091814
228	0xbf1aadf5	-0.6042169
229	0xbf4aede2	-0.7926923
230	0x3dec0ffc	0.11526486
231	0xbc9592d3	-0.018258488
232	0x3f8b49e0	1.088192
233	0x3e5650b0	0.20929217
234	0xbaf45ee8	-0.0018644007
235	0x3f8d39b0	1.103323
236	0x3e5ecb31	0.21757199
237	0x3d6e79fb	0.0582218
238	0xbdfb7294	-0.122777134
239	0x3cbfa3ab	0.023393473
240	0x3f186cad	0.59540826
241	0xbe9d1a5f	-0.30684182
242	0xbe5edb20	-0.21763277
243	0x3e393fd7	0.18090759
244	0x3f9ad803	1.2097172
245	0x3e7bae9a	0.24578324
246	0xbe98060a	-0.29692107
247	0xbf55cf71	-0.83519655
248	0x3d90f969	0.07078821
249	0xbdac90af	-0.08426034
250	0xbe002e05	-0.12517555
251	0xbcddc440	-0.027071118
252	0xbd383dea	-0.04498092
253	0xbd7799e5	-0.0604495
254	0xbd864365	-0.06555823
255	0xbef528bc	-0.4788264

fc1.bias f4 [100]
0	0x3f5eee23	0.8708212
1	0xbfb60e84	-1.422318
2	0xbe61d332	-0.22053221
3	0xbdc3a4ac	-0.09552893
4	0x3e1623f9	0.1466216
5	0x3eb36827	0.350404
6	0xbdc5b972	-0.096545115
7	0xbf61f76b	-0.88268155
8	0x3e8be3cd	0.27322236
9	0xbef3980e	-0.47576946
10	0xbd265be1	-0.040614966
11	0xbf45cdcb	-0.7726714
12	0xbf1046e5	-0.56358176
13	0x3d5f6420	0.054538846
14	0xbf3c8cd3	-0.7365238
15	0xbecdb03d	-0.40173522
16	0x3d912209	0.0708657
17	0xbf0d0b5c	-0.5509546
18	0x3e03dd47	0.1287738
19	0x3d75c143	0.05999876
20	0x3ea700ab	0.32617697
21	0x3e2bfa8e	0.16794798
22	0x3f00ec2a	0.5036036
23	0x3ed276c0	0.41106224
24	0x3d0c67ca	0.03427867
25	0xbf0b687f	-0.54456323
26	0x3f02c4fe	0.51081836
27	0xbed5a3af	-0.41726443
28	0x3e12d047	0.14337264
29	0x3e051c2f	0.12999032
30	0xbf99a8e1	-1.2004663
31	0xbe605c14	-0.21910125
32	0xbe842d38	-0.2581575
33	0x3dfd1273	0.123570345
34	0x3e87d3b8	0.26528716
35	0x3f5d0da2	0.8634893
36	0x3e1975c0	0.14986324
37	0x3ec096a2	0.37614924
38	0x3e58d28d	0.21174069
39	0xbe727425	-0.23677118
40	0x3e16dfb3	0.14733772
41	0x3e7c96b7	0.24666868
42	0x3e5e430a	0.21705261
43	0x3e52688c	0.20547694
44	0x3ed90261	0.42384627
45	0x3f484aa9	0.7823892
46	0x3ab41d23	0.0013741594
47	0x3ea781b2	0.32716137
48	0x3f39efc0	0.72631454
49	0x3ec5d1b0	0.3863654
50	0x3f1dada5	0.61593086
51	0x3d81b3f6	0.06333153
52	0x3f5da598	0.865808
53	0xbf0bbae0	-0.54582024
54	0x3f0cdc84	0.5502398
55	0x3d40d550	0.04707843
56	0x3e824a8a	0.25447494
57	0xbf262c57	-0.6491141
58	0x3e9dae15	0.30796877
59	0x3f354fae	0.70824707
60	0xbef13d28	-0.4711697
61	0x3d9459a3	0.07243659
62	0x3f405fca	0.7514616
63	0xbdf2ecab	-0.11861547
64	0xbea0470b	-0.313042
65	0x3ef1288d	0.4710125
66	0x3ed0704c	0.40710676
67	0x3e8b55c0	0.2721386
68	0x3f10b0d4	0.5651982
69	0xbe1eb4b2	-0.15498617
70	0x3ea71ab4	0.3263756
71	0xbf3e8109	-0.7441564
72	0x3ea31c5f	0.31857583
73	0xbdbf4796	-0.09339826
74	0xbf784b77	-0.9699015
75	0xbe4d7ade	-0.20066401
76	0x3ed61183	0.41810235
77	0x3ebb3d33	0.3657013
78	0x3eb26785	0.34844604
79	0x3f3e8a62	0.74429905
80	0xbf9271b6	-1.1440952
81	0x3e760d32	0.24028471
82	0xbead2997	-0.33820793
83	0x3ecf2985	0.40461364
84	0xbf1bbf43	-0.6083872
85	0x3e90a4c7	0.28250715
86	0xbf0f2c82	-0.5592729
87	0x3d4749fe	0.04865455
88	0x3e033241	0.12812139
89	0xbefd8b6a	-0.49520427
90	0xbce9e3b9	-0.02855097
91	0x3ed83a32	0.422319
92	0xbe9e74e2	-0.3094855
93	0xbed3aa17	-0.41340706
94	0x3eec00af	0.46094272
95	0x3ee9fdde	0.45701498
96	0x3f1f6667	0.6226563
97	0xbf372af5	-0.7154992
98	0x3f0f85b3	0.56063384
99	0x3f20123d	0.6252783

fc2.weight f4 [1, 100]
0	0x3e7d2a39	0.24723138
1	0xc0265df0	-2.5994835
2	0xbc84244c	-0.016130589
3	0x3f0ed119	0.5578781
4	0xbf0f7323	-0.5603506
5	0x3f6ae134	0.9174988
6	0xbeb3acf2	-0.35092884
7	0xbf6228f3	-0.88343734
8	0x3f03bb8b	0.5145804
9	0xbf98a603	-1.1925663
10	0x3ec86423	0.39138898
11	0xbf728355	-0.94731647
12	0xbce640ad	-0.028107012
13	0x3e348e7a	0.17632475
14	0xbf767caf	-0.96284
15	0xbd99b8bf	-0.07505941
16	0x3e8942fc	0.26808918
17	0x3dfc9aef	0.12334239
18	0x3a66b5ee	0.00088009133
19	0xbe268e1b	-0.16265146
20	0x3ee81974	0.4533192
21	0x3e34fb58	0.17674005
22	0x3ec68d84	0.38779843
23	0x3edbb648	0.42912507
24	0x3dd8430b	0.105596624
25	0xbd6525a8	-0.055944115
26	0xbee43bab	-0.44576773
27	0xbe56e665	-0.20986326
28	0x3e9cf60f	0.30656478
29	0x3e1c4268	0.15259707
30	0xbf40dd09	-0.7533727
31	0x3c618a24	0.013765845
32	0x3ef7ee82	0.48424155
33	0x3df7add6	0.120937034
34	0x3f1b3e8e	0.60642326
35	0x3e827c24	0.25485337
36	0x3e7951ab	0.2434756
37	0x3e8c4bdd	0.2740163
38	0xbec42b52	-0.383143
39	0xbf3f2a65	-0.74674064
40	0x3e0f17af	0.13973878
41	0x3f25da0d	0.64785844
42	0x3f30ecff	0.6911163
43	0x3e81933d	0.25307646
44	0x3eb4c84e	0.3530907
45	0x3e6f6447	0.23378097
46	0x3e7dc3ed	0.24781771
47	0x3e7a8387	0.24464236
48	0x3ea09f3c	0.31371486
49	0x3e4fe9c6	0.20304021
50	0x3e98962c	0.29802072
51	0xbe810c37	-0.25204632
52	0xbeb608f2	-0.355537
53	0xb9e51f59	-0.0004370164
54	0x3eb1dd8b	0.34739336
55	0xbf067f87	-0.5253834
56	0x3f5b93e1	0.8577252
57	0xbf91e778	-1.1398764
58	0x3ed0a260	0.40748882
59	0x3dec4966	0.11537437
60	0xbd67c3ff	-0.0565834
61	0xbe3238c2	-0.17404464
62	0x3e855c7b	0.2604712
63	0xbe9f27c2	-0.3108502
64	0xbf22f472	-0.63654244
65	0x3e40ffcf	0.18847583
66	0x3f514a56	0.8175405
67	0x3e940e42	0.28917128
68	0x3f55961a	0.8343216
69	0xbeacbf70	-0.33739805
70	0x3ede98b5	0.4347588
71	0xbf491203	-0.7854311
72	0x3ecbb647	0.39787504
73	0xbece2c15	-0.40268007
74	0xbf8f09b0	-1.1174831
75	0xbeb0f4ef	-0.3456187
76	0xbf17df55	-0.5932515
77	0xbef0baa6	-0.470174
78	0xbf253364	-0.6453154
79	0x3e63c941	0.22244741
80	0xbfbbdbc6	-1.4676445
81	0xbf0f6c73	-0.56024855
82	0x3edda362	0.43288714
83	0x3ceab445	0.028650412
84	0x3c3a28f5	0.011362304
85	0xbeef94b1	-0.4679313
86	0xbda215f7	-0.07914346
87	0x3f47687e	0.7789382
88	0x3e07aa30	0.13248515
89	0xbf2b1980	-0.66835785
90	0xb642bbe2	-2.9017615e-06
91	0x3e695663	0.2278686
92	0x3defc2e2	0.11707093
93	0xbf45c6b4	-0.7725632
94	0xbec0fd80	-0.37693405
95	0x3f0c107d	0.5471266
96	0xbefedbca	-0.4977706
97	0xbff1bdc7	-1.888604
98	0x3f3b8afd	0.73258954
99	0x3e9865e6	0.29765242

exp_avg f4 [100, 3]
0	0x3abd9977	0.0014465292
1	0xb931ae2b	-0.00016944918
2	0xba867962	-0.0010259564
3	0x80000004	-6e-45
4	0x00000004	6e-45
5	0x80000004	-6e-45
6	0x80000004	-6e-45
7	0x00000004	6e-45
8	0x80000004	-6e-45
9	0x39107d21	0.00013779524
10	0x37d5cfb8	2.5488305e-05
11	0xbb2592cd	-0.0025264502
12	0xb94e1cd7	-0.00019656435
13	0xb6f7b6a7	-7.382437e-06
14	0x3b13db76	0.0022561229
15	0x3bad489a	0.005288196
16	0xba03dc6a	-0.00050300977
17	0xbb9b0420	-0.0047307163
18	0xb8341b8b	-4.2940996e-05
19	0x3883bb84	6.281494e-05
20	0xb976718c	-0.00023502688
21	0x37ca336c	2.4104222e-05
22	0xb7f86c8b	-2.9614448e-05
23	0xb83b8d6a	-4.4715976e-05
24	0x3b45d956	0.0030189357
25	0xb98ea90a	-0.00027210295
26	0xbb31034d	-0.0027010024
27	0xb9719cdd	-0.00023041987
28	0x39bb9718	0.00035779993
29	0x3b0314b2	0.002000135
30	0xb9bd7d06	-0.0003614204
31	0xb7ff2575	-3.0415811e-05
32	0xbaffa140	-0.0019503012
33	0xbbf421a9	-0.0074503017
34	0x39100a5e	0.00013736772
35	0x390a194e	0.00013170132
36	0x00000000	0.0
37	0x00000000	0.0
38	0x00000000	0.0
39	0x3a8ae4a9	0.001059671
40	0xb89889cc	-7.2735915e-05
41	0xba8c66f2	-0.0010711832
42	0x3ac9618e	0.0015364157
43	0x39eacb56	0.00044783455
44	0x3b05370b	0.0020326998
45	0x00000000	0.0
46	0x00000000	0.0
47	0x00000000	0.0
48	0x3ad10381	0.0015946479
49	0xb9043a14	-0.00012610137
50	0xbabeae03	-0.0014547709
51	0x00000000	0.0
52	0x00000000	0.0
53	0x00000000	0.0
54	0x36e8e48f	6.9407465e-06
55	0xb4f7e485	-4.6173605e-07
56	0xb6905f34	-4.3026175e-06
57	0xbaa437c2	-0.0012528824
58	0x38aae2b9	8.148462e-05
59	0xb94d598d	-0.00019583684
60	0xba1f2208	-0.00060704397
61	0xb937691a	-0.00017491393
62	0xbae7c253	-0.0017681814
63	0x3a818cd5	0.000988389
64	0xb8a67d99	-7.938891e-05
65	0xb99c7551	-0.00029842046
66	0x3b067792	0.0020518047
67	0xb9b8f3cf	-0.00035276866
68	0x393e03f7	0.00018121289
69	0x3b143450	0.0022614188
70	0xb99d7f4a	-0.0003004021
71	0xb9131632	-0.00014027281
72	0x3a24fb9e	0.00062935974
73	0xb8405663	-4.585682e-05
74	0xba209f79	-0.0006127279
75	0x00000000	0.0
76	0x00000000	0.0
77	0x00000000	0.0
78	0xbb2885af	-0.0025714447
79	0x398463e8	0.00025251438
80	0x3b0a4160	0.0021096095
81	0xb6625034	-3.3723309e-06
82	0x36048945	1.9749434e-06
83	0xb910de9e	-0.00013815842
84	0x3aef640e	0.0018264072
85	0xb914ce62	-0.00014191263
86	0xbad9b1ee	-0.0016608813
87	0x3a5bd354	0.00083856774
88	0xb8fb7c14	-0.00011991724
89	0x3510693d	5.379732e-07
90	0x80000004	-6e-45
91	0x00000004	6e-45
92	0x80000004	-6e-45
93	0x80000004	-6e-45
94	0x80000004	-6e-45
95	0x80000004	-6e-45
96	0x395bb60d	0.00020953287
97	0x3808f8f8	3.2656797e-05
98	0xbb03e807	-0.0020127313
99	0x3a2cf311	0.0006597499
100	0xb8c7bf80	-9.524729e-05
101	0x37af800b	2.092125e-05
102	0x3b6ab995	0.0035816182
103	0xb9908c2d	-0.0002757026
104	0xbb5f4b1a	-0.0034071864
105	0x3ac355d3	0.0014902897
106	0xb9374106	-0.00017476463
107	0xba8a4fb9	-0.0010552324
108	0x3abb84d9	0.001430656
109	0xb900ad4f	-0.00012271594
110	0xbaac3b7f	-0.001314029
111	0x3ac8cdaa	0.0015320082
112	0xb8ffab3e	-0.00012191244
113	0xba625c6f	-0.00086349895
114	0xb90c04c4	-0.00013353216
115	0x378164e1	1.5424974e-05
116	0x3ac9da57	0.0015400153
117	0xb95642cc	-0.00020433514
118	0x390cd92c	0.00013432343
119	0x3b0aadfb	0.002116083
120	0x3a578e53	0.0008222807
121	0xb89084e5	-6.8912086e-05
122	0xba44c472	-0.0007506079
123	0x3b773d75	0.003772584
124	0xb9b5a1ba	-0.00034643506
125	0xbb5db90f	-0.0033832227
126	0x3b76ef2a	0.0037679174
127	0xb9e7faca	-0.00044246606
128	0xba074fe3	-0.00051617454
129	0x3ac32404	0.0014888053
130	0xb902b493	-0.00012465035
131	0xbab34b80	-0.0013679117
132	0x3b07e2e4	0.0020734603
133	0xb938a6d4	-0.00017609756
134	0xbaf0602a	-0.0018339206
135	0x3ab3466f	0.0013677607
136	0xb92803c7	-0.00016023136
137	0xba7e3b36	-0.0009698154
138	0x3ab1385b	0.0013520824
139	0xb956f27b	-0.00020498961
140	0x38a74210	7.975486e-05
141	0x3abb1ea0	0.0014276095
142	0xb906b747	-0.00012847512
143	0xbaab9de2	-0.0013093317
144	0x3af06f91	0.0018343796
145	0xb9613d3e	-0.00021480487
146	0xbaaaa278	-0.001301839
147	0x3a8cea01	0.0010750891
148	0xb9291a28	-0.0001612684
149	0xb69ed2b4	-4.733296e-06
150	0x3ae47abf	0.0017431601
151	0xb95609f3	-0.00020412337
152	0xbaa22b78	-0.0012372574
153	0xb528c713	-6.287457e-07
154	0x390102ba	0.00012303414
155	0xba19eda6	-0.0005871899
156	0xbb07e4d8	-0.0020735767
157	0x397e9a50	0.00024280814
158	0x3ac2861e	0.0014840995
159	0x80000004	-6e-45
160	0x80000004	-6e-45
161	0x00000004	6e-45
162	0x3af06b5a	0.001834254
163	0xb98757e7	-0.000258147
164	0xb8104e3c	-3.4405137e-05
165	0xb9476f91	-0.0001901968
166	0xb865e5b6	-5.481179e-05
167	0x3b197c74	0.0023420127
168	0x3ba2ef24	0.0049723554
169	0xb98fc171	-0.0002741921
170	0xbb56b8d8	-0.0032763984
171	0x393ea0dc	0.00018179737
172	0x398bfad2	0.00026699022
173	0xb9ab11d3	-0.00032628942
174	0x3b0fd645	0.0021947783
175	0xb9b380d3	-0.00034237522
176	0x38a94951	8.072204e-05
177	0x3a316139	0.00067665015
178	0xb8a5f651	-7.913693e-05
179	0xb9fa6019	-0.00047755314
180	0x00000000	0.0
181	0x00000000	0.0
182	0x00000000	0.0
183	0xba9b1242	-0.0011831003
184	0x381967c8	3.6574696e-05
185	0x39a2ec96	0.00031075318
186	0x3ac7d398	0.0015245555
187	0xb93b0de1	-0.0001783888
188	0xba8df0f7	-0.0010829259
189	0xb80647d0	-3.201497e-05
190	0x38f5ad84	0.0001171483
191	0xba0c6316	-0.0005355341
192	0xb897ed3a	-7.244428e-05
193	0x390bbe5b	0.00013326986
194	0xba26c51c	-0.0006361769
195	0x3a837410	0.0010029096
196	0xb92442ae	-0.00015665099
197	0xb792dd6a	-1.750766e-05
198	0x3b9a9afd	0.004718183
199	0xba003d46	-0.0004891943
200	0xbb84670b	-0.004040604
201	0x3acc8e75	0.001560642
202	0xb979981e	-0.00023803159
203	0x37c4c4ce	2.3456665e-05
204	0x3b9f7649	0.0048663956
205	0xba12b804	-0.00055968785
206	0xbb779b21	-0.0037781673
207	0xb82c1d29	-4.1035153e-05
208	0x38efadd1	0.00011428784
209	0xba09360e	-0.000523419
210	0x3b1911e3	0.0023356609
211	0xb9be540a	-0.00036302238
212	0x37b14abe	2.1134849e-05
213	0xb8233e86	-3.8920458e-05
214	0x388d4f3d	6.738163e-05
215	0xb994e083	-0.00028396034
216	0x3b18dd1d	0.0023325153
217	0xb9557285	-0.00020355925
218	0xbb0827af	-0.0020775606
219	0xb7f172dc	-2.8782924e-05
220	0x392cc1c7	0.00016475386
221	0xba486c39	-0.0007645521
222	0xb77bac4b	-1.5000881e-05
223	0xb7a18c16	-1.9257928e-05
224	0xb976c320	-0.00023533078
225	0xb82b09fa	-4.077887e-05
226	0x38bf7130	9.1286725e-05
227	0xb9d7b109	-0.00041139897
228	0xb9272ba4	-0.00015942618
229	0xb89032f7	-6.875948e-05
230	0x3b20f07e	0.0024557407
231	0xbb3030e1	-0.0026884603
232	0x3952a9ec	0.00020090461
233	0x3b244089	0.002506288
234	0xbb71429d	-0.0036813386
235	0x3989e74d	0.0002630301
236	0x3b672fa6	0.0035276203
237	0x3aaa7e55	0.0013007621
238	0xb9205ae8	-0.00015292654
239	0xba70ec4a	-0.0009190483
240	0x80000004	-6e-45
241	0x80000004	-6e-45
242	0x80000004	-6e-45
243	0xbb5199ba	-0.0031982497
244	0x394f805d	0.00019788877
245	0x3b50a329	0.0031835532
246	0x39388127	0.0001759572
247	0x3837b400	4.3798238e-05
248	0xbaaa3f92	-0.0012988916
249	0x3931ebfc	0.00016967946
250	0xb7a81b52	-2.0039883e-05
251	0xb8f2f73e	-0.00011585512
252	0x80000004	-6e-45
253	0x80000004	-6e-45
254	0x80000004	-6e-45
255	0xb93e576f	-0.00018152384

exp_avg_sq f4 [100, 3]
0	0x3845bb8e	4.7143134e-05
1	0x37b28823	2.1282647e-05
2	0x39db6579	0.00041846538
3	0x1b7552f6	2.0292731e-22
4	0x1c3cfdcc	6.2532007e-22
5	0x1f6150fa	4.7712586e-20
6	0x000001f4	7e-43
7	0x000001f4	7e-43
8	0x000001f4	7e-43
9	0x382fc9c7	4.191117e-05
10	0x3878b2d9	5.9294372e-05
11	0x3ac26599	0.0014831304
12	0x3827cc62	4.000625e-05
13	0x383b15b3	4.4604483e-05
14	0x3aab4962	0.0013068134
15	0x3a21d7af	0.0006173802
16	0x39405908	0.00018343714
17	0x3b8b2801	0.004246712
18	0x371edd4d	9.4690595e-06
19	0x37919125	1.7352935e-05
20	0x39770024	0.00023555808
21	0x378231ba	1.5520363e-05
22	0x368cd63a	4.1972644e-06
23	0x3737fded	1.0966772e-05
24	0x39495bc4	0.00019203039
25	0x3880b973	6.138058e-05
26	0x3aab62ab	0.001307567
27	0x38a457c6	7.8364785e-05
28	0x3914948c	0.00014169718
29	0x3b024763	0.0019878976
30	0x37c270ac	2.317907e-05
31	0x38088e90	3.25577e-05
32	0x3a458c60	0.0007535871
33	0x3a0ad3c2	0.00052958366
34	0x3735e328	1.084133e-05
35	0x385db141	5.2855587e-05
36	0x00000000	0.0
37	0x00000000	0.0
38	0x00000000	0.0
39	0x37b190cd	2.1167472e-05
40	0x36e794b3	6.9016473e-06
41	0x39178491	0.00014449867
42	0x37e5eeb8	2.741009e-05
43	0x38983cc6	7.259245e-05
44	0x3a3980d1	0.0007076385
45	0x00000000	0.0
46	0x00000000	0.0
47	0x00000000	0.0
48	0x385b1dd9	5.2241467e-05
49	0x377c9102	1.5054133e-05
50	0x39b14388	0.00033810386
51	0x00000000	0.0
52	0x00000000	0.0
53	0x00000000	0.0
54	0x3141970a	2.8171052e-09
55	0x3096d088	1.0973205e-09
56	0x32a86d70	1.960754e-08
57	0x3794dee1	1.7746761e-05
58	0x35f50d98	1.8257879e-06
59	0x382ea588	4.1638996e-05
60	0x37f1ce7e	2.8825594e-05
61	0x380f98bc	3.42361e-05
62	0x3a8999c5	0.0010498097
63	0x37b25d31	2.126265e-05
64	0x36b974b5	5.527016e-06
65	0x389bf2fe	7.436237e-05
66	0x38de3344	0.00010595334
67	0x3808b182	3.2590244e-05
68	0x39be2d84	0.00036273536
69	0x390567bf	0.00012722517
70	0x37f6de31	2.9428951e-05
71	0x39cbec2a	0.00038895133
72	0x36fcfb83	7.539465e-06
73	0x36214fac	2.4037245e-06
74	0x3853ef80	5.0529372e-05
75	0x00000000	0.0
76	0x00000000	0.0
77	0x00000000	0.0
78	0x391cfeb5	0.00014972205
79	0x384253ed	4.6331366e-05
80	0x3a981456	0.001160274
81	0x360ccc31	2.098048e-06
82	0x3422c084	1.5157462e-07
83	0x37f9e5b5	2.9790079e-05
84	0x388f601c	6.836673e-05
85	0x37a337e5	1.9457142e-05
86	0x39e3c3a1	0.0004344257
87	0x377b5602	1.4980791e-05
88	0x361f94ae	2.377939e-06
89	0x3827007e	3.981636e-05
90	0x1af67375	1.01929746e-22
91	0x1b8880d5	2.2582568e-22
92	0x1ec71a06	2.1080708e-20
93	0x000001f4	7e-43
94	0x000001f4	7e-43
95	0x000001f4	7e-43
96	0x37ad05ea	2.0625961e-05
97	0x3833baf6	4.2851047e-05
98	0x3a66e053	0.00088072306
99	0x3728bae2	1.0057092e-05
100	0x35c5b504	1.4730326e-06
101	0x37d0a5e0	2.4872774e-05
102	0x398b1d4d	0.00026533977
103	0x38bb0d5f	8.9193454e-05
104	0x3aec83bd	0.0018044632
105	0x38518ecc	4.9962473e-05
106	0x37bd37ad	2.2556482e-05
107	0x39e89165	0.00044358816
108	0x3837bfe8	4.3809327e-05
109	0x37737516	1.451119e-05
110	0x39996267	0.0002925575
111	0x385b62ab	5.230556e-05
112	0x37855b97	1.5897485e-05
113	0x39664f43	0.00021964037
114	0x37a320a3	1.9446312e-05
115	0x37e82477	2.7673535e-05
116	0x3a30af7f	0.0006740018
117	0x38532fb3	5.0350744e-05
118	0x3861a555	5.3798158e-05
119	0x3aaa7fe7	0.0013008089
120	0x3777bd49	1.4766419e-05
121	0x36a1a638	4.8175243e-06
122	0x38cb7ffb	9.7036325e-05
123	0x39a021a4	0.00030542642
124	0x38bb70c7	8.937861e-05
125	0x3b06b9cb	0.0020557519
126	0x39a6cf96	0.0003181665
127	0x38aadf3c	8.147812e-05
128	0x3a8abdd5	0.0010585139
129	0x38483a9b	4.7738296e-05
130	0x37855f12	1.5899106e-05
131	0x39a4c06c	0.00031423883
132	0x38be0875	9.061481e-05
133	0x380ac6f7	3.3087064e-05
134	0x3a2db8c8	0.0006626961
135	0x38307574	4.2071057e-05
136	0x379f551d	1.8993911e-05
137	0x39c3c748	0.00037341774
138	0x382a4c65	4.0602306e-05
139	0x37066302	8.010074e-06
140	0x38e15145	0.00010743974
141	0x38402064	4.5806533e-05
142	0x378f549d	1.708633e-05
143	0x399cecd4	0.0002993109
144	0x389ee884	7.5773365e-05
145	0x380f76a9	3.4204368e-05
146	0x3a305f92	0.0006728108
147	0x37f02fea	2.8632541e-05
148	0x36d1da54	6.254102e-06
149	0x38a3d8cd	7.812828e-05
150	0x38900054	6.866516e-05
151	0x3801ffbf	3.099418e-05
152	0x3a1fd059	0.0006096415
153	0x36ab048a	5.0967255e-06
154	0x36f94222	7.428477e-06
155	0x38f2e6a8	0.00011582422
156	0x38ceb3ca	9.856334e-05
157	0x383a8b2c	4.447547e-05
158	0x3a6587ec	0.00087559107
159	0x000001f4	7e-43
160	0x000001f4	7e-43
161	0x000001f4	7e-43
162	0x38b28a70	8.5134874e-05
163	0x37a53bae	1.9697323e-05
164	0x3985f985	0.00025553643
165	0x3810a51d	3.448605e-05
166	0x381042d5	3.4394518e-05
167	0x3a82a6e7	0.0009967954
168	0x3a031bd5	0.0005001401
169	0x391b7998	0.00014827249
170	0x3b14ad8e	0.0022686454
171	0x37c2efb9	2.3238232e-05
172	0x38ee6ada	0.00011368627
173	0x3a2a6da0	0.0006501321
174	0x38f16bdd	0.000115118666
175	0x37a8f6e8	2.0142135e-05
176	0x399cffc1	0.0002994519
177	0x372b79c5	1.0220746e-05
178	0x369ad5b3	4.6144355e-06
179	0x38be23f2	9.066601e-05
180	0x00000000	0.0
181	0x00000000	0.0
182	0x00000000	0.0
183	0x37b16f28	2.1151805e-05
184	0x36bbfa63	5.602183e-06
185	0x38a871bc	8.032049e-05
186	0x385c951e	5.2590964e-05
187	0x37c71fc2	2.3737437e-05
188	0x39f4c239	0.00046684014
189	0x36f2a9c1	7.231924e-06
190	0x3723fffe	9.77516e-06
191	0x390ab4cb	0.00013228056
192	0x379935fb	1.8264158e-05
193	0x37bdabcf	2.261056e-05
194	0x39ac8999	0.00032908915
195	0x37ceaa37	2.4636376e-05
196	0x36b24aab	5.313506e-06
197	0x388b42d4	6.640484e-05
198	0x3a02f046	0.000499491
199	0x39259838	0.00015792332
200	0x3b67e928	0.0035386775
201	0x3873ca52	5.812414e-05
202	0x37064135	8.002205e-06
203	0x39110bef	0.00013832723
204	0x3a08fbac	0.00052254903
205	0x393f40d6	0.00018239333
206	0x3b84c49f	0.0040517594
207	0x370bf9ac	8.343177e-06
208	0x3729fde5	1.0132299e-05
209	0x39103f4e	0.00013756493
210	0x390ad2df	0.00013239261
211	0x37aa1dba	2.0279422e-05
212	0x39a81b12	0.00032063626
213	0x379a1176	1.8366361e-05
214	0x37c92b37	2.398119e-05
215	0x392d1ff7	0.00016510474
216	0x38f35724	0.00011603374
217	0x38242956	3.9139144e-05
218	0x3a54a182	0.0008111225
219	0x3749d410	1.2029908e-05
220	0x378afcbf	1.6568576e-05
221	0x39737345	0.00023217227
222	0x38172a31	3.60405e-05
223	0x37f67b85	2.9383003e-05
224	0x392e7571	0.00016637683
225	0x36c72312	5.934745e-06
226	0x3709bea9	8.210228e-06
227	0x38f22286	0.0001154589
228	0x386b2380	5.6061428e-05
229	0x38a9e65f	8.101458e-05
230	0x3aeef30d	0.0018230394
231	0x392b579c	0.00016340468
232	0x38318805	4.2326767e-05
233	0x3a91d6f1	0.001112668
234	0x39a1611c	0.00030780665
235	0x38a605e0	7.916591e-05
236	0x3b07d034	0.0020723464
237	0x38208f89	3.828065e-05
238	0x3790ff38	1.7284983e-05
239	0x39b2286e	0.00033980928
240	0x1b760cc6	2.035277e-22
241	0x1c805e4d	8.494706e-22
242	0x1f1a62e9	3.2692585e-20
243	0x396df2a1	0.00022692468
244	0x38501bbc	4.9616894e-05
245	0x3abae74a	0.0014259603
246	0x374408e1	1.1684578e-05
247	0x380ecc11	3.404549e-05
248	0x3a1f7b45	0.0006083737
249	0x3531180a	6.597262e-07
250	0x34a0056e	2.9806273e-07
251	0x36c35460	5.8212754e-06
252	0x000001f4	7e-43
253	0x000001f4	7e-43
254	0x000001f4	7e-43
255	0x37f32a23	2.8987479e-05

exp_avg f4 [100]
0	0x3a920ae0	0.0011142157
1	0x00000004	6e-45
2	0x00000004	6e-45
3	0xb9f4f2f7	-0.0004672033
4	0x3a1d46e9	0.0005999641
5	0x3b8898af	0.004168592
6	0xb7e3e4d2	-2.7167061e-05
7	0x382279aa	3.873712e-05
8	0x3b154906	0.002277912
9	0x3a5058d7	0.00079478085
10	0xba4d2653	-0.000782584
11	0xbbf34d36	-0.0074249757
12	0x00000000	0.0
13	0x3a48deca	0.00076625927
14	0x3b0934ef	0.0020936092
15	0x00000000	0.0
16	0x3aaa4940	0.0012991801
17	0x00000000	0.0
18	0x36be2eee	5.6679046e-06
19	0xbaa24122	-0.001237903
20	0xbaa6cad6	-0.0012725245
21	0x3a761117	0.0009386702
22	0x3b06145b	0.002045891
23	0x3b0d26e8	0.0021538083
24	0x39f496c4	0.00046651636
25	0x00000000	0.0
26	0xbb000931	-0.0019536729
27	0x371c7fff	9.328126e-06
28	0x3ac25432	0.0014826118
29	0x3a5340be	0.00080586586
30	0x00000004	6e-45
31	0x00000004	6e-45
32	0xb9ae8cd4	-0.0003329279
33	0x3a263665	0.0006340503
34	0x3b2d375b	0.00264307
35	0x3a968645	0.0011484107
36	0x3a991c9b	0.0011681499
37	0x3ab38e44	0.0013699015
38	0x39a6f253	0.00031842533
39	0x3a19bcf4	0.0005864643
40	0x3a300e39	0.00067159865
41	0x3b3e30fa	0.0029020892
42	0x3b705222	0.0036670049
43	0x3a9edcf3	0.0012120291
44	0x3ac9aca6	0.0015386536
45	0x3a8a1a1b	0.0010536344
46	0x3ab0cc3e	0.0013488603
47	0x3a984dfd	0.0011619922
48	0x3ab92ed4	0.0014128336
49	0x3a88cdae	0.0010437274
50	0x3aaff658	0.0013424857
51	0xb8abd90a	-8.194342e-05
52	0xbad0dd7a	-0.0015935146
53	0x00000004	6e-45
54	0x3ae775b8	0.0017658984
55	0x3a1ac322	0.0005903711
56	0x3b8dad44	0.0043236334
57	0x39b2a46c	0.0003407331
58	0x3b0a06da	0.0021061213
59	0x3a08d14e	0.0005219177
60	0x00000000	0.0
61	0xba91d414	-0.0011125826
62	0x3a99dcef	0.0011738817
63	0xb8a779cb	-7.985866e-05
64	0xb8bd60b5	-9.0302354e-05
65	0x3a7b9f8d	0.0009598665
66	0x3b733d4e	0.0037115398
67	0x3ac14755	0.001474599
68	0x3b770cdf	0.003769688
69	0xb8997f7b	-7.3193536e-05
70	0x3b107413	0.0022041842
71	0xb89c37a6	-7.449025e-05
72	0x3ae51d3d	0.0017480027
73	0xb8f319de	-0.00011591961
74	0x3796705f	1.793372e-05
75	0xb88d665b	-6.742469e-05
76	0x3a00811e	0.00049020525
77	0xbb045ede	-0.0020198147
78	0xbb36c308	-0.0027887244
79	0x3a836e8c	0.0010027452
80	0x00000004	6e-45
81	0xbb1cf7a8	-0.0023951326
82	0xb9347330	-0.00017209048
83	0x390a496d	0.00013188059
84	0x00000004	6e-45
85	0x39e47666	0.00043575763
86	0x00000000	0.0
87	0x3b884218	0.0041582696
88	0x3a28b1a7	0.00064351637
89	0xb8a489be	-7.845786e-05
90	0x00000004	6e-45
91	0x3a970dca	0.0011524495
92	0x00000004	6e-45
93	0xb8f83532	-0.0001183547
94	0xbad87f82	-0.0016517492
95	0x3b2140e9	0.002460534
96	0xbb1d2705	-0.0023979556
97	0xbc1beea8	-0.009517349
98	0x3b58c224	0.0033074701
99	0x3ab11eb9	0.0013513184

exp_avg_sq f4 [100]
0	0x38871452	6.4410866e-05
1	0x1c92486e	9.680192e-22
2	0x000001f4	7e-43
3	0x3903602b	0.00012528959
4	0x38b54f0c	8.645476e-05
5	0x3a4fdc94	0.0007929292
6	0x380893c5	3.2562548e-05
7	0x37a6810e	1.9848838e-05
8	0x39828742	0.00024896307
9	0x39853397	0.00025406174
10	0x388bb2db	6.661351e-05
11	0x3a0ddffe	0.00054121006
12	0x00000000	0.0
13	0x37eeaf0d	2.8453325e-05
14	0x38fcba09	0.00012050948
15	0x00000000	0.0
16	0x3892c051	6.997644e-05
17	0x00000000	0.0
18	0x318b0f75	4.0471897e-09
19	0x37a53edc	1.9698804e-05
20	0x3884f7d5	6.340413e-05
21	0x37e01c46	2.6716047e-05
22	0x3904f756	0.00012680641
23	0x391c8f40	0.00014930684
24	0x3725bffa	9.879464e-06
25	0x00000000	0.0
26	0x39482747	0.00019088118
27	0x362b92b8	2.5566387e-06
28	0x38c03f98	9.167119e-05
29	0x37907ecc	1.7225182e-05
30	0x1c18a3f0	5.0504465e-22
31	0x000001f4	7e-43
32	0x38b059f3	8.409088e-05
33	0x3742a3c4	1.1601431e-05
34	0x39b57ba1	0.0003461512
35	0x388f29c8	6.826554e-05
36	0x387700eb	5.8890244e-05
37	0x388ec332	6.8074456e-05
38	0x384a4a4a	4.822974e-05
39	0x38f3e2a4	0.00011629358
40	0x37a814ec	2.0036903e-05
41	0x39cdafa5	0.00039231512
42	0x39d0e0da	0.0003984038
43	0x38885396	6.5005544e-05
44	0x38f9802e	0.000118971206
45	0x38711390	5.7477097e-05
46	0x384b2fac	4.844337e-05
47	0x38814ca2	6.165473e-05
48	0x38d91ffc	0.00010353324
49	0x380b97da	3.3281605e-05
50	0x38c4c3d8	9.382487e-05
51	0x378b84b5	1.6631888e-05
52	0x390d38af	0.00013467924
53	0x000001f4	7e-43
54	0x38cea319	9.853225e-05
55	0x38937798	7.031782e-05
56	0x3a2e44a1	0.00066478
57	0x3922716d	0.00015491778
58	0x390d65cb	0.00013484729
59	0x376a40b7	1.39625545e-05
60	0x00000000	0.0
61	0x37e03dcf	2.6731663e-05
62	0x3896b469	7.1861614e-05
63	0x37ac899b	2.0568075e-05
64	0x38475646	4.7525646e-05
65	0x37f1729f	2.8782813e-05
66	0x3a287d19	0.00064273324
67	0x38889a54	6.513731e-05
68	0x3a33ffa8	0.0006866404
69	0x37b77efe	2.1874435e-05
70	0x391d426b	0.0001499743
71	0x38393abb	4.4162134e-05
72	0x391c6b88	0.00014917378
73	0x3814d3aa	3.5483077e-05
74	0x388a219b	6.586612e-05
75	0x378e4736	1.696088e-05
76	0x392910de	0.0001612338
77	0x3952fd95	0.00020121627
78	0x39c6591c	0.00037831895
79	0x385b62a4	5.2305535e-05
80	0x1cc754a5	1.3190595e-21
81	0x3992291a	0.00027877913
82	0x38709e22	5.736773e-05
83	0x3571bde8	9.0055846e-07
84	0x000001f4	7e-43
85	0x389a54e5	7.359105e-05
86	0x00000000	0.0
87	0x39f971cd	0.0004757777
88	0x37916790	1.7333572e-05
89	0x38349145	4.3050637e-05
90	0x0c27100c	1.2870041e-31
91	0x382bd523	4.0968076e-05
92	0x000001f4	7e-43
93	0x388c4b3a	6.689732e-05
94	0x390ec167	0.00013614223
95	0x39977a84	0.00028892246
96	0x3984dbac	0.0002534067
97	0x3b1d1d9d	0.002397395
98	0x3a05a4c3	0.0005098099
99	0x38be2e42	9.068522e-05

exp_avg f4 [1, 100]
0	0x3b9ea6cc	0.004841661
1	0x80000004	-6e-45
2	0x80000004	-6e-45
3	0xbac25142	-0.0014825242
4	0xba8a9340	-0.0010572448
5	0x3ab4b120	0.0013785698
6	0x37409e3d	1.14809345e-05
7	0xb63227e6	-2.654729e-06
8	0x3b353882	0.002765209
9	0xb9bbdcad	-0.00035831836
10	0xbb21941f	-0.0024654937
11	0x39ac6922	0.00032884727
12	0x00000000	0.0
13	0x3afec4fe	0.001943737
14	0xb94451c8	-0.00018722482
15	0x00000000	0.0
16	0xb8fccae5	-0.000120540884
17	0x00000000	0.0
18	0x39a408b9	0.00031287016
19	0x3925405c	0.00015759602
20	0xba4cacab	-0.0007807712
21	0x3b56661d	0.0032714673
22	0x3ba3b94d	0.004996455
23	0x3b86b335	0.0041107186
24	0x3a9b9adb	0.0011871712
25	0x00000000	0.0
26	0xba384741	-0.00070296606
27	0xb7c0d7f7	-2.298875e-05
28	0x3a3e0d34	0.0007249892
29	0x3a69d482	0.0008919911
30	0x80000004	-6e-45
31	0x00000004	6e-45
32	0xba306435	-0.0006728799
33	0x3b021bbf	0.0019852964
34	0x3b6e478c	0.0036358563
35	0x3b8583fb	0.004074571
36	0xb9c6eb58	-0.00037940848
37	0x3b9dcba2	0.0048155347
38	0xbaa659ea	-0.0012691591
39	0xba3b0cc7	-0.0007135388
40	0x3a254a58	0.00063053286
41	0x3acacf78	0.0015473207
42	0x3b9f8cca	0.0048690783
43	0x3a8f8394	0.0010949248
44	0x3b837035	0.004011179
45	0x3b73cca6	0.0037200837
46	0x3b20efa2	0.0024556895
47	0x3afa84ac	0.0019113026
48	0x3b7cd709	0.003858032
49	0x3b86899e	0.0041057607
50	0x3b81a3ea	0.0039563077
51	0xb86c580d	-5.634879e-05
52	0x3b2ba8cc	0.002619314
53	0x80000004	-6e-45
54	0x3ba85e3a	0.005138186
55	0xba6830e3	-0.00088573823
56	0x3b699ccd	0.003564644
57	0xb8c9b64f	-9.6183845e-05
58	0x3b8c1a90	0.0042756274
59	0x3b55442a	0.003254185
60	0x00000000	0.0
61	0x3a912466	0.001107347
62	0x3bc04588	0.005867664
63	0xb7a40bcf	-1.9555822e-05
64	0xb7ace001	-2.0608308e-05
65	0x3ba861b9	0.0051386026
66	0x3a225feb	0.00061941025
67	0x3b7433c8	0.003726231
68	0x3a8a12c3	0.0010534156
69	0xb7cfee44	-2.4787274e-05
70	0x3b860fb5	0.004091228
71	0xb7ac180d	-2.0515197e-05
72	0x3b4c7810	0.0031199493
73	0xb80d8993	-3.3745146e-05
74	0xb7f6e187	-2.9430505e-05
75	0xb78c8844	-1.6752754e-05
76	0xba8eae9d	-0.0010885779
77	0xb910162b	-0.00013741168
78	0xb930a629	-0.00016846567
79	0x3b726315	0.0036985327
80	0x80000004	-6e-45
81	0x395de765	0.00021162404
82	0xb98db9b2	-0.0002703197
83	0x3acb713b	0.0015521416
84	0x00000004	6e-45
85	0xba94ccbd	-0.0011352521
86	0x00000000	0.0
87	0x3badecb6	0.005307759
88	0x3a79a1ee	0.00095227256
89	0xb7b1ab93	-2.117994e-05
90	0x80000004	-6e-45
91	0x3b75bd3e	0.003749683
92	0x00000004	6e-45
93	0xb7b29bbc	-2.1291773e-05
94	0xba1bca37	-0.0005942913
95	0x3a5e4cdc	0.0008480081
96	0x39c6e7c4	0.00037938182
97	0x39c0c202	0.0003676564
98	0x3b07e6e3	0.0020736984
99	0x3a9eb33a	0.0012107857

exp_avg_sq f4 [1, 100]
0	0x3a688649	0.00088701077
1	0x17f4f47f	1.582985e-24
2	0x000001f4	7e-43
3	0x3a3c85a4	0.0007191545
4	0x39beab13	0.00036367084
5	0x3a3ccd4f	0.0007202224
6	0x385b3232	5.2260417e-05
7	0x33a90eec	7.87239e-08
8	0x3a00a84c	0.00049078907
9	0x390c8ee6	0.00013404674
10	0x3abf92e0	0.0014615916
11	0x35d6a626	1.5992598e-06
12	0x00000000	0.0
13	0x393dfd40	0.00018118788
14	0x383407f9	4.292277e-05
15	0x00000000	0.0
16	0x3a0b5b85	0.00053160667
17	0x00000000	0.0
18	0x379b7b85	1.8534958e-05
19	0x390cd861	0.00013432048
20	0x3927039e	0.00015927709
21	0x39989d96	0.0002910911
22	0x3a30d837	0.0006746086
23	0x3a098620	0.00052461214
24	0x38ad8d8e	8.2756495e-05
25	0x00000000	0.0
26	0x39f93ea3	0.0004753965
27	0x35c8934f	1.4944034e-06
28	0x3a373fce	0.00069904036
29	0x38bd9be1	9.041257e-05
30	0x192739ba	8.6453554e-24
31	0x000001f4	7e-43
32	0x39b549ca	0.00034577987
33	0x39148593	0.0001416414
34	0x3a1ec15f	0.0006056036
35	0x3a648f9c	0.0008718909
36	0x3a56e40c	0.0008197434
37	0x3a4986c6	0.00076876243
38	0x39edae8b	0.00045334207
39	0x398f9a5a	0.00027390086
40	0x39e5bd81	0.00043819475
41	0x3a10bf81	0.00055217004
42	0x3a200f04	0.0006105753
43	0x3a31504a	0.0006763978
44	0x3a1b63ba	0.0005927641
45	0x3a1bea05	0.00059476524
46	0x39121e49	0.00013934927
47	0x3a3ef1a6	0.0007283933
48	0x3a3300dc	0.0006828436
49	0x39f30d9a	0.00046358706
50	0x3a17379c	0.00057684793
51	0x38cf38fe	9.881145e-05
52	0x3a828689	0.0009958307
53	0x000001f4	7e-43
54	0x3a4e085a	0.0007859521
55	0x399818fa	0.00029010308
56	0x3a2a5035	0.0006496937
57	0x3789bf5d	1.6420783e-05
58	0x3a1277d7	0.00055873155
59	0x3a036704	0.0005012604
60	0x00000000	0.0
61	0x38b2a7cc	8.518956e-05
62	0x3a851547	0.0010153436
63	0x383837c4	4.3920954e-05
64	0x37e04680	2.673571e-05
65	0x3a3bd2a9	0.00071648747
66	0x3a1156d8	0.0005544252
67	0x39f7931e	0.00047221122
68	0x3a09acd6	0.000525189
69	0x383af61b	4.457506e-05
70	0x3a0508fe	0.00050748873
71	0x37081eb2	8.1133785e-06
72	0x39fe8626	0.00048546604
73	0x3893d10a	7.048443e-05
74	0x367fb0c9	3.8100864e-06
75	0x37e31e31	2.7074568e-05
76	0x3a3df98b	0.00072469626
77	0x3a13591e	0.00056208845
78	0x3a158dcc	0.00057050283
79	0x3a385243	0.0007031301
80	0x192734ba	8.644346e-24
81	0x3a189cc1	0.0005821698
82	0x38be9da4	9.089269e-05
83	0x391dd59f	0.00015052267
84	0x000001f4	7e-43
85	0x39c5f580	0.0003775768
86	0x00000000	0.0
87	0x3a2515df	0.00062975095
88	0x39d3d553	0.00040403995
89	0x37b8ed53	2.2045022e-05
90	0x113c2d38	1.4844519e-28
91	0x39fbc1b6	0.00048018777
92	0x000001f4	7e-43
93	0x38016012	3.084547e-05
94	0x39da188f	0.00041598498
95	0x39f2de1d	0.00046323324
96	0x3ab06800	0.0013458729
97	0x375940ae	1.2949267e-05
98	0x3a879888	0.001034514
99	0x39e39a73	0.00043411888
